node {
  name: "Placeholder"
  op: "Placeholder"
  attr {
    key: "dtype"
    value {
      type: DT_FLOAT
    }
  }
  attr {
    key: "shape"
    value {
      shape {
        dim {
          size: 1
        }
        dim {
          size: 240
        }
        dim {
          size: 320
        }
        dim {
          size: 3
        }
      }
    }
  }
}
node {
  name: "scalar_mul/scalar"
  op: "Const"
  attr {
    key: "dtype"
    value {
      type: DT_FLOAT
    }
  }
  attr {
    key: "value"
    value {
      tensor {
        dtype: DT_FLOAT
        tensor_shape {
        }
        float_val: 0.003921568859368563
      }
    }
  }
}
node {
  name: "scalar_mul"
  op: "Mul"
  input: "scalar_mul/scalar"
  input: "Placeholder"
  attr {
    key: "T"
    value {
      type: DT_FLOAT
    }
  }
}
node {
  name: "0/conv2d/kernel/Initializer/random_uniform/shape"
  op: "Const"
  attr {
    key: "_class"
    value {
      list {
        s: "loc:@0/conv2d/kernel"
      }
    }
  }
  attr {
    key: "dtype"
    value {
      type: DT_INT32
    }
  }
  attr {
    key: "value"
    value {
      tensor {
        dtype: DT_INT32
        tensor_shape {
          dim {
            size: 4
          }
        }
        tensor_content: "\007\000\000\000\007\000\000\000\003\000\000\000\200\000\000\000"
      }
    }
  }
}
node {
  name: "0/conv2d/kernel/Initializer/random_uniform/min"
  op: "Const"
  attr {
    key: "_class"
    value {
      list {
        s: "loc:@0/conv2d/kernel"
      }
    }
  }
  attr {
    key: "dtype"
    value {
      type: DT_FLOAT
    }
  }
  attr {
    key: "value"
    value {
      tensor {
        dtype: DT_FLOAT
        tensor_shape {
        }
        float_val: -0.030573273077607155
      }
    }
  }
}
node {
  name: "0/conv2d/kernel/Initializer/random_uniform/max"
  op: "Const"
  attr {
    key: "_class"
    value {
      list {
        s: "loc:@0/conv2d/kernel"
      }
    }
  }
  attr {
    key: "dtype"
    value {
      type: DT_FLOAT
    }
  }
  attr {
    key: "value"
    value {
      tensor {
        dtype: DT_FLOAT
        tensor_shape {
        }
        float_val: 0.030573273077607155
      }
    }
  }
}
node {
  name: "0/conv2d/kernel/Initializer/random_uniform/RandomUniform"
  op: "RandomUniform"
  input: "0/conv2d/kernel/Initializer/random_uniform/shape"
  attr {
    key: "T"
    value {
      type: DT_INT32
    }
  }
  attr {
    key: "_class"
    value {
      list {
        s: "loc:@0/conv2d/kernel"
      }
    }
  }
  attr {
    key: "dtype"
    value {
      type: DT_FLOAT
    }
  }
  attr {
    key: "seed"
    value {
      i: 0
    }
  }
  attr {
    key: "seed2"
    value {
      i: 0
    }
  }
}
node {
  name: "0/conv2d/kernel/Initializer/random_uniform/sub"
  op: "Sub"
  input: "0/conv2d/kernel/Initializer/random_uniform/max"
  input: "0/conv2d/kernel/Initializer/random_uniform/min"
  attr {
    key: "T"
    value {
      type: DT_FLOAT
    }
  }
  attr {
    key: "_class"
    value {
      list {
        s: "loc:@0/conv2d/kernel"
      }
    }
  }
}
node {
  name: "0/conv2d/kernel/Initializer/random_uniform/mul"
  op: "Mul"
  input: "0/conv2d/kernel/Initializer/random_uniform/RandomUniform"
  input: "0/conv2d/kernel/Initializer/random_uniform/sub"
  attr {
    key: "T"
    value {
      type: DT_FLOAT
    }
  }
  attr {
    key: "_class"
    value {
      list {
        s: "loc:@0/conv2d/kernel"
      }
    }
  }
}
node {
  name: "0/conv2d/kernel/Initializer/random_uniform"
  op: "Add"
  input: "0/conv2d/kernel/Initializer/random_uniform/mul"
  input: "0/conv2d/kernel/Initializer/random_uniform/min"
  attr {
    key: "T"
    value {
      type: DT_FLOAT
    }
  }
  attr {
    key: "_class"
    value {
      list {
        s: "loc:@0/conv2d/kernel"
      }
    }
  }
}
node {
  name: "0/conv2d/kernel"
  op: "VarHandleOp"
  attr {
    key: "_class"
    value {
      list {
        s: "loc:@0/conv2d/kernel"
      }
    }
  }
  attr {
    key: "container"
    value {
      s: ""
    }
  }
  attr {
    key: "dtype"
    value {
      type: DT_FLOAT
    }
  }
  attr {
    key: "shape"
    value {
      shape {
        dim {
          size: 7
        }
        dim {
          size: 7
        }
        dim {
          size: 3
        }
        dim {
          size: 128
        }
      }
    }
  }
  attr {
    key: "shared_name"
    value {
      s: "0/conv2d/kernel"
    }
  }
}
node {
  name: "0/conv2d/kernel/IsInitialized/VarIsInitializedOp"
  op: "VarIsInitializedOp"
  input: "0/conv2d/kernel"
}
node {
  name: "0/conv2d/kernel/Assign"
  op: "AssignVariableOp"
  input: "0/conv2d/kernel"
  input: "0/conv2d/kernel/Initializer/random_uniform"
  attr {
    key: "dtype"
    value {
      type: DT_FLOAT
    }
  }
}
node {
  name: "0/conv2d/kernel/Read/ReadVariableOp"
  op: "ReadVariableOp"
  input: "0/conv2d/kernel"
  attr {
    key: "dtype"
    value {
      type: DT_FLOAT
    }
  }
}
node {
  name: "0/conv2d/bias/Initializer/zeros"
  op: "Const"
  attr {
    key: "_class"
    value {
      list {
        s: "loc:@0/conv2d/bias"
      }
    }
  }
  attr {
    key: "dtype"
    value {
      type: DT_FLOAT
    }
  }
  attr {
    key: "value"
    value {
      tensor {
        dtype: DT_FLOAT
        tensor_shape {
          dim {
            size: 128
          }
        }
        float_val: 0.0
      }
    }
  }
}
node {
  name: "0/conv2d/bias"
  op: "VarHandleOp"
  attr {
    key: "_class"
    value {
      list {
        s: "loc:@0/conv2d/bias"
      }
    }
  }
  attr {
    key: "container"
    value {
      s: ""
    }
  }
  attr {
    key: "dtype"
    value {
      type: DT_FLOAT
    }
  }
  attr {
    key: "shape"
    value {
      shape {
        dim {
          size: 128
        }
      }
    }
  }
  attr {
    key: "shared_name"
    value {
      s: "0/conv2d/bias"
    }
  }
}
node {
  name: "0/conv2d/bias/IsInitialized/VarIsInitializedOp"
  op: "VarIsInitializedOp"
  input: "0/conv2d/bias"
}
node {
  name: "0/conv2d/bias/Assign"
  op: "AssignVariableOp"
  input: "0/conv2d/bias"
  input: "0/conv2d/bias/Initializer/zeros"
  attr {
    key: "dtype"
    value {
      type: DT_FLOAT
    }
  }
}
node {
  name: "0/conv2d/bias/Read/ReadVariableOp"
  op: "ReadVariableOp"
  input: "0/conv2d/bias"
  attr {
    key: "dtype"
    value {
      type: DT_FLOAT
    }
  }
}
node {
  name: "module/0/conv2d/dilation_rate"
  op: "Const"
  attr {
    key: "dtype"
    value {
      type: DT_INT32
    }
  }
  attr {
    key: "value"
    value {
      tensor {
        dtype: DT_INT32
        tensor_shape {
          dim {
            size: 2
          }
        }
        tensor_content: "\001\000\000\000\001\000\000\000"
      }
    }
  }
}
node {
  name: "module/0/conv2d/Conv2D/ReadVariableOp"
  op: "ReadVariableOp"
  input: "0/conv2d/kernel"
  attr {
    key: "dtype"
    value {
      type: DT_FLOAT
    }
  }
}
node {
  name: "module/0/conv2d/Conv2D"
  op: "Conv2D"
  input: "scalar_mul"
  input: "module/0/conv2d/Conv2D/ReadVariableOp"
  attr {
    key: "T"
    value {
      type: DT_FLOAT
    }
  }
  attr {
    key: "data_format"
    value {
      s: "NHWC"
    }
  }
  attr {
    key: "dilations"
    value {
      list {
        i: 1
        i: 1
        i: 1
        i: 1
      }
    }
  }
  attr {
    key: "explicit_paddings"
    value {
      list {
      }
    }
  }
  attr {
    key: "padding"
    value {
      s: "SAME"
    }
  }
  attr {
    key: "strides"
    value {
      list {
        i: 1
        i: 1
        i: 1
        i: 1
      }
    }
  }
  attr {
    key: "use_cudnn_on_gpu"
    value {
      b: true
    }
  }
}
node {
  name: "module/0/conv2d/BiasAdd/ReadVariableOp"
  op: "ReadVariableOp"
  input: "0/conv2d/bias"
  attr {
    key: "dtype"
    value {
      type: DT_FLOAT
    }
  }
}
node {
  name: "module/0/conv2d/BiasAdd"
  op: "BiasAdd"
  input: "module/0/conv2d/Conv2D"
  input: "module/0/conv2d/BiasAdd/ReadVariableOp"
  attr {
    key: "T"
    value {
      type: DT_FLOAT
    }
  }
  attr {
    key: "data_format"
    value {
      s: "NHWC"
    }
  }
}
node {
  name: "1/batch_normalization/gamma/Initializer/ones"
  op: "Const"
  attr {
    key: "_class"
    value {
      list {
        s: "loc:@1/batch_normalization/gamma"
      }
    }
  }
  attr {
    key: "dtype"
    value {
      type: DT_FLOAT
    }
  }
  attr {
    key: "value"
    value {
      tensor {
        dtype: DT_FLOAT
        tensor_shape {
          dim {
            size: 128
          }
        }
        float_val: 1.0
      }
    }
  }
}
node {
  name: "1/batch_normalization/gamma"
  op: "VarHandleOp"
  attr {
    key: "_class"
    value {
      list {
        s: "loc:@1/batch_normalization/gamma"
      }
    }
  }
  attr {
    key: "container"
    value {
      s: ""
    }
  }
  attr {
    key: "dtype"
    value {
      type: DT_FLOAT
    }
  }
  attr {
    key: "shape"
    value {
      shape {
        dim {
          size: 128
        }
      }
    }
  }
  attr {
    key: "shared_name"
    value {
      s: "1/batch_normalization/gamma"
    }
  }
}
node {
  name: "1/batch_normalization/gamma/IsInitialized/VarIsInitializedOp"
  op: "VarIsInitializedOp"
  input: "1/batch_normalization/gamma"
}
node {
  name: "1/batch_normalization/gamma/Assign"
  op: "AssignVariableOp"
  input: "1/batch_normalization/gamma"
  input: "1/batch_normalization/gamma/Initializer/ones"
  attr {
    key: "dtype"
    value {
      type: DT_FLOAT
    }
  }
}
node {
  name: "1/batch_normalization/gamma/Read/ReadVariableOp"
  op: "ReadVariableOp"
  input: "1/batch_normalization/gamma"
  attr {
    key: "dtype"
    value {
      type: DT_FLOAT
    }
  }
}
node {
  name: "1/batch_normalization/beta/Initializer/zeros"
  op: "Const"
  attr {
    key: "_class"
    value {
      list {
        s: "loc:@1/batch_normalization/beta"
      }
    }
  }
  attr {
    key: "dtype"
    value {
      type: DT_FLOAT
    }
  }
  attr {
    key: "value"
    value {
      tensor {
        dtype: DT_FLOAT
        tensor_shape {
          dim {
            size: 128
          }
        }
        float_val: 0.0
      }
    }
  }
}
node {
  name: "1/batch_normalization/beta"
  op: "VarHandleOp"
  attr {
    key: "_class"
    value {
      list {
        s: "loc:@1/batch_normalization/beta"
      }
    }
  }
  attr {
    key: "container"
    value {
      s: ""
    }
  }
  attr {
    key: "dtype"
    value {
      type: DT_FLOAT
    }
  }
  attr {
    key: "shape"
    value {
      shape {
        dim {
          size: 128
        }
      }
    }
  }
  attr {
    key: "shared_name"
    value {
      s: "1/batch_normalization/beta"
    }
  }
}
node {
  name: "1/batch_normalization/beta/IsInitialized/VarIsInitializedOp"
  op: "VarIsInitializedOp"
  input: "1/batch_normalization/beta"
}
node {
  name: "1/batch_normalization/beta/Assign"
  op: "AssignVariableOp"
  input: "1/batch_normalization/beta"
  input: "1/batch_normalization/beta/Initializer/zeros"
  attr {
    key: "dtype"
    value {
      type: DT_FLOAT
    }
  }
}
node {
  name: "1/batch_normalization/beta/Read/ReadVariableOp"
  op: "ReadVariableOp"
  input: "1/batch_normalization/beta"
  attr {
    key: "dtype"
    value {
      type: DT_FLOAT
    }
  }
}
node {
  name: "1/batch_normalization/moving_mean/Initializer/zeros"
  op: "Const"
  attr {
    key: "_class"
    value {
      list {
        s: "loc:@1/batch_normalization/moving_mean"
      }
    }
  }
  attr {
    key: "dtype"
    value {
      type: DT_FLOAT
    }
  }
  attr {
    key: "value"
    value {
      tensor {
        dtype: DT_FLOAT
        tensor_shape {
          dim {
            size: 128
          }
        }
        float_val: 0.0
      }
    }
  }
}
node {
  name: "1/batch_normalization/moving_mean"
  op: "VarHandleOp"
  attr {
    key: "_class"
    value {
      list {
        s: "loc:@1/batch_normalization/moving_mean"
      }
    }
  }
  attr {
    key: "container"
    value {
      s: ""
    }
  }
  attr {
    key: "dtype"
    value {
      type: DT_FLOAT
    }
  }
  attr {
    key: "shape"
    value {
      shape {
        dim {
          size: 128
        }
      }
    }
  }
  attr {
    key: "shared_name"
    value {
      s: "1/batch_normalization/moving_mean"
    }
  }
}
node {
  name: "1/batch_normalization/moving_mean/IsInitialized/VarIsInitializedOp"
  op: "VarIsInitializedOp"
  input: "1/batch_normalization/moving_mean"
}
node {
  name: "1/batch_normalization/moving_mean/Assign"
  op: "AssignVariableOp"
  input: "1/batch_normalization/moving_mean"
  input: "1/batch_normalization/moving_mean/Initializer/zeros"
  attr {
    key: "dtype"
    value {
      type: DT_FLOAT
    }
  }
}
node {
  name: "1/batch_normalization/moving_mean/Read/ReadVariableOp"
  op: "ReadVariableOp"
  input: "1/batch_normalization/moving_mean"
  attr {
    key: "dtype"
    value {
      type: DT_FLOAT
    }
  }
}
node {
  name: "1/batch_normalization/moving_variance/Initializer/ones"
  op: "Const"
  attr {
    key: "_class"
    value {
      list {
        s: "loc:@1/batch_normalization/moving_variance"
      }
    }
  }
  attr {
    key: "dtype"
    value {
      type: DT_FLOAT
    }
  }
  attr {
    key: "value"
    value {
      tensor {
        dtype: DT_FLOAT
        tensor_shape {
          dim {
            size: 128
          }
        }
        float_val: 1.0
      }
    }
  }
}
node {
  name: "1/batch_normalization/moving_variance"
  op: "VarHandleOp"
  attr {
    key: "_class"
    value {
      list {
        s: "loc:@1/batch_normalization/moving_variance"
      }
    }
  }
  attr {
    key: "container"
    value {
      s: ""
    }
  }
  attr {
    key: "dtype"
    value {
      type: DT_FLOAT
    }
  }
  attr {
    key: "shape"
    value {
      shape {
        dim {
          size: 128
        }
      }
    }
  }
  attr {
    key: "shared_name"
    value {
      s: "1/batch_normalization/moving_variance"
    }
  }
}
node {
  name: "1/batch_normalization/moving_variance/IsInitialized/VarIsInitializedOp"
  op: "VarIsInitializedOp"
  input: "1/batch_normalization/moving_variance"
}
node {
  name: "1/batch_normalization/moving_variance/Assign"
  op: "AssignVariableOp"
  input: "1/batch_normalization/moving_variance"
  input: "1/batch_normalization/moving_variance/Initializer/ones"
  attr {
    key: "dtype"
    value {
      type: DT_FLOAT
    }
  }
}
node {
  name: "1/batch_normalization/moving_variance/Read/ReadVariableOp"
  op: "ReadVariableOp"
  input: "1/batch_normalization/moving_variance"
  attr {
    key: "dtype"
    value {
      type: DT_FLOAT
    }
  }
}
node {
  name: "module/1/batch_normalization/ReadVariableOp"
  op: "ReadVariableOp"
  input: "1/batch_normalization/gamma"
  attr {
    key: "dtype"
    value {
      type: DT_FLOAT
    }
  }
}
node {
  name: "module/1/batch_normalization/ReadVariableOp_1"
  op: "ReadVariableOp"
  input: "1/batch_normalization/beta"
  attr {
    key: "dtype"
    value {
      type: DT_FLOAT
    }
  }
}
node {
  name: "module/1/batch_normalization/FusedBatchNormV3/ReadVariableOp"
  op: "ReadVariableOp"
  input: "1/batch_normalization/moving_mean"
  attr {
    key: "dtype"
    value {
      type: DT_FLOAT
    }
  }
}
node {
  name: "module/1/batch_normalization/FusedBatchNormV3/ReadVariableOp_1"
  op: "ReadVariableOp"
  input: "1/batch_normalization/moving_variance"
  attr {
    key: "dtype"
    value {
      type: DT_FLOAT
    }
  }
}
node {
  name: "module/1/batch_normalization/FusedBatchNormV3"
  op: "FusedBatchNormV3"
  input: "module/0/conv2d/BiasAdd"
  input: "module/1/batch_normalization/ReadVariableOp"
  input: "module/1/batch_normalization/ReadVariableOp_1"
  input: "module/1/batch_normalization/FusedBatchNormV3/ReadVariableOp"
  input: "module/1/batch_normalization/FusedBatchNormV3/ReadVariableOp_1"
  attr {
    key: "T"
    value {
      type: DT_FLOAT
    }
  }
  attr {
    key: "U"
    value {
      type: DT_FLOAT
    }
  }
  attr {
    key: "data_format"
    value {
      s: "NHWC"
    }
  }
  attr {
    key: "epsilon"
    value {
      f: 0.0010000000474974513
    }
  }
  attr {
    key: "is_training"
    value {
      b: false
    }
  }
}
node {
  name: "module/1/batch_normalization/Const"
  op: "Const"
  attr {
    key: "dtype"
    value {
      type: DT_FLOAT
    }
  }
  attr {
    key: "value"
    value {
      tensor {
        dtype: DT_FLOAT
        tensor_shape {
        }
        float_val: 0.9900000095367432
      }
    }
  }
}
node {
  name: "module/2/Relu"
  op: "Relu"
  input: "module/1/batch_normalization/FusedBatchNormV3"
  attr {
    key: "T"
    value {
      type: DT_FLOAT
    }
  }
}
node {
  name: "module/3/0/0/0/max_pooling2d/MaxPool"
  op: "MaxPool"
  input: "module/2/Relu"
  attr {
    key: "T"
    value {
      type: DT_FLOAT
    }
  }
  attr {
    key: "data_format"
    value {
      s: "NHWC"
    }
  }
  attr {
    key: "ksize"
    value {
      list {
        i: 1
        i: 2
        i: 2
        i: 1
      }
    }
  }
  attr {
    key: "padding"
    value {
      s: "VALID"
    }
  }
  attr {
    key: "strides"
    value {
      list {
        i: 1
        i: 2
        i: 2
        i: 1
      }
    }
  }
}
node {
  name: "3/0/0/1/conv2d/kernel/Initializer/random_uniform/shape"
  op: "Const"
  attr {
    key: "_class"
    value {
      list {
        s: "loc:@3/0/0/1/conv2d/kernel"
      }
    }
  }
  attr {
    key: "dtype"
    value {
      type: DT_INT32
    }
  }
  attr {
    key: "value"
    value {
      tensor {
        dtype: DT_INT32
        tensor_shape {
          dim {
            size: 4
          }
        }
        tensor_content: "\001\000\000\000\001\000\000\000\200\000\000\000 \000\000\000"
      }
    }
  }
}
node {
  name: "3/0/0/1/conv2d/kernel/Initializer/random_uniform/min"
  op: "Const"
  attr {
    key: "_class"
    value {
      list {
        s: "loc:@3/0/0/1/conv2d/kernel"
      }
    }
  }
  attr {
    key: "dtype"
    value {
      type: DT_FLOAT
    }
  }
  attr {
    key: "value"
    value {
      tensor {
        dtype: DT_FLOAT
        tensor_shape {
        }
        float_val: -0.19364917278289795
      }
    }
  }
}
node {
  name: "3/0/0/1/conv2d/kernel/Initializer/random_uniform/max"
  op: "Const"
  attr {
    key: "_class"
    value {
      list {
        s: "loc:@3/0/0/1/conv2d/kernel"
      }
    }
  }
  attr {
    key: "dtype"
    value {
      type: DT_FLOAT
    }
  }
  attr {
    key: "value"
    value {
      tensor {
        dtype: DT_FLOAT
        tensor_shape {
        }
        float_val: 0.19364917278289795
      }
    }
  }
}
node {
  name: "3/0/0/1/conv2d/kernel/Initializer/random_uniform/RandomUniform"
  op: "RandomUniform"
  input: "3/0/0/1/conv2d/kernel/Initializer/random_uniform/shape"
  attr {
    key: "T"
    value {
      type: DT_INT32
    }
  }
  attr {
    key: "_class"
    value {
      list {
        s: "loc:@3/0/0/1/conv2d/kernel"
      }
    }
  }
  attr {
    key: "dtype"
    value {
      type: DT_FLOAT
    }
  }
  attr {
    key: "seed"
    value {
      i: 0
    }
  }
  attr {
    key: "seed2"
    value {
      i: 0
    }
  }
}
node {
  name: "3/0/0/1/conv2d/kernel/Initializer/random_uniform/sub"
  op: "Sub"
  input: "3/0/0/1/conv2d/kernel/Initializer/random_uniform/max"
  input: "3/0/0/1/conv2d/kernel/Initializer/random_uniform/min"
  attr {
    key: "T"
    value {
      type: DT_FLOAT
    }
  }
  attr {
    key: "_class"
    value {
      list {
        s: "loc:@3/0/0/1/conv2d/kernel"
      }
    }
  }
}
node {
  name: "3/0/0/1/conv2d/kernel/Initializer/random_uniform/mul"
  op: "Mul"
  input: "3/0/0/1/conv2d/kernel/Initializer/random_uniform/RandomUniform"
  input: "3/0/0/1/conv2d/kernel/Initializer/random_uniform/sub"
  attr {
    key: "T"
    value {
      type: DT_FLOAT
    }
  }
  attr {
    key: "_class"
    value {
      list {
        s: "loc:@3/0/0/1/conv2d/kernel"
      }
    }
  }
}
node {
  name: "3/0/0/1/conv2d/kernel/Initializer/random_uniform"
  op: "Add"
  input: "3/0/0/1/conv2d/kernel/Initializer/random_uniform/mul"
  input: "3/0/0/1/conv2d/kernel/Initializer/random_uniform/min"
  attr {
    key: "T"
    value {
      type: DT_FLOAT
    }
  }
  attr {
    key: "_class"
    value {
      list {
        s: "loc:@3/0/0/1/conv2d/kernel"
      }
    }
  }
}
node {
  name: "3/0/0/1/conv2d/kernel"
  op: "VarHandleOp"
  attr {
    key: "_class"
    value {
      list {
        s: "loc:@3/0/0/1/conv2d/kernel"
      }
    }
  }
  attr {
    key: "container"
    value {
      s: ""
    }
  }
  attr {
    key: "dtype"
    value {
      type: DT_FLOAT
    }
  }
  attr {
    key: "shape"
    value {
      shape {
        dim {
          size: 1
        }
        dim {
          size: 1
        }
        dim {
          size: 128
        }
        dim {
          size: 32
        }
      }
    }
  }
  attr {
    key: "shared_name"
    value {
      s: "3/0/0/1/conv2d/kernel"
    }
  }
}
node {
  name: "3/0/0/1/conv2d/kernel/IsInitialized/VarIsInitializedOp"
  op: "VarIsInitializedOp"
  input: "3/0/0/1/conv2d/kernel"
}
node {
  name: "3/0/0/1/conv2d/kernel/Assign"
  op: "AssignVariableOp"
  input: "3/0/0/1/conv2d/kernel"
  input: "3/0/0/1/conv2d/kernel/Initializer/random_uniform"
  attr {
    key: "dtype"
    value {
      type: DT_FLOAT
    }
  }
}
node {
  name: "3/0/0/1/conv2d/kernel/Read/ReadVariableOp"
  op: "ReadVariableOp"
  input: "3/0/0/1/conv2d/kernel"
  attr {
    key: "dtype"
    value {
      type: DT_FLOAT
    }
  }
}
node {
  name: "3/0/0/1/conv2d/bias/Initializer/zeros"
  op: "Const"
  attr {
    key: "_class"
    value {
      list {
        s: "loc:@3/0/0/1/conv2d/bias"
      }
    }
  }
  attr {
    key: "dtype"
    value {
      type: DT_FLOAT
    }
  }
  attr {
    key: "value"
    value {
      tensor {
        dtype: DT_FLOAT
        tensor_shape {
          dim {
            size: 32
          }
        }
        float_val: 0.0
      }
    }
  }
}
node {
  name: "3/0/0/1/conv2d/bias"
  op: "VarHandleOp"
  attr {
    key: "_class"
    value {
      list {
        s: "loc:@3/0/0/1/conv2d/bias"
      }
    }
  }
  attr {
    key: "container"
    value {
      s: ""
    }
  }
  attr {
    key: "dtype"
    value {
      type: DT_FLOAT
    }
  }
  attr {
    key: "shape"
    value {
      shape {
        dim {
          size: 32
        }
      }
    }
  }
  attr {
    key: "shared_name"
    value {
      s: "3/0/0/1/conv2d/bias"
    }
  }
}
node {
  name: "3/0/0/1/conv2d/bias/IsInitialized/VarIsInitializedOp"
  op: "VarIsInitializedOp"
  input: "3/0/0/1/conv2d/bias"
}
node {
  name: "3/0/0/1/conv2d/bias/Assign"
  op: "AssignVariableOp"
  input: "3/0/0/1/conv2d/bias"
  input: "3/0/0/1/conv2d/bias/Initializer/zeros"
  attr {
    key: "dtype"
    value {
      type: DT_FLOAT
    }
  }
}
node {
  name: "3/0/0/1/conv2d/bias/Read/ReadVariableOp"
  op: "ReadVariableOp"
  input: "3/0/0/1/conv2d/bias"
  attr {
    key: "dtype"
    value {
      type: DT_FLOAT
    }
  }
}
node {
  name: "module/3/0/0/1/conv2d/dilation_rate"
  op: "Const"
  attr {
    key: "dtype"
    value {
      type: DT_INT32
    }
  }
  attr {
    key: "value"
    value {
      tensor {
        dtype: DT_INT32
        tensor_shape {
          dim {
            size: 2
          }
        }
        tensor_content: "\001\000\000\000\001\000\000\000"
      }
    }
  }
}
node {
  name: "module/3/0/0/1/conv2d/Conv2D/ReadVariableOp"
  op: "ReadVariableOp"
  input: "3/0/0/1/conv2d/kernel"
  attr {
    key: "dtype"
    value {
      type: DT_FLOAT
    }
  }
}
node {
  name: "module/3/0/0/1/conv2d/Conv2D"
  op: "Conv2D"
  input: "module/3/0/0/0/max_pooling2d/MaxPool"
  input: "module/3/0/0/1/conv2d/Conv2D/ReadVariableOp"
  attr {
    key: "T"
    value {
      type: DT_FLOAT
    }
  }
  attr {
    key: "data_format"
    value {
      s: "NHWC"
    }
  }
  attr {
    key: "dilations"
    value {
      list {
        i: 1
        i: 1
        i: 1
        i: 1
      }
    }
  }
  attr {
    key: "explicit_paddings"
    value {
      list {
      }
    }
  }
  attr {
    key: "padding"
    value {
      s: "VALID"
    }
  }
  attr {
    key: "strides"
    value {
      list {
        i: 1
        i: 1
        i: 1
        i: 1
      }
    }
  }
  attr {
    key: "use_cudnn_on_gpu"
    value {
      b: true
    }
  }
}
node {
  name: "module/3/0/0/1/conv2d/BiasAdd/ReadVariableOp"
  op: "ReadVariableOp"
  input: "3/0/0/1/conv2d/bias"
  attr {
    key: "dtype"
    value {
      type: DT_FLOAT
    }
  }
}
node {
  name: "module/3/0/0/1/conv2d/BiasAdd"
  op: "BiasAdd"
  input: "module/3/0/0/1/conv2d/Conv2D"
  input: "module/3/0/0/1/conv2d/BiasAdd/ReadVariableOp"
  attr {
    key: "T"
    value {
      type: DT_FLOAT
    }
  }
  attr {
    key: "data_format"
    value {
      s: "NHWC"
    }
  }
}
node {
  name: "module/3/0/0/1/batch_normalization/Const"
  op: "Const"
  attr {
    key: "dtype"
    value {
      type: DT_FLOAT
    }
  }
  attr {
    key: "value"
    value {
      tensor {
        dtype: DT_FLOAT
        tensor_shape {
          dim {
            size: 32
          }
        }
        float_val: 1.0
      }
    }
  }
}
node {
  name: "module/3/0/0/1/batch_normalization/Const_1"
  op: "Const"
  attr {
    key: "dtype"
    value {
      type: DT_FLOAT
    }
  }
  attr {
    key: "value"
    value {
      tensor {
        dtype: DT_FLOAT
        tensor_shape {
          dim {
            size: 32
          }
        }
        float_val: 0.0
      }
    }
  }
}
node {
  name: "3/0/0/1/batch_normalization/moving_mean/Initializer/zeros"
  op: "Const"
  attr {
    key: "_class"
    value {
      list {
        s: "loc:@3/0/0/1/batch_normalization/moving_mean"
      }
    }
  }
  attr {
    key: "dtype"
    value {
      type: DT_FLOAT
    }
  }
  attr {
    key: "value"
    value {
      tensor {
        dtype: DT_FLOAT
        tensor_shape {
          dim {
            size: 32
          }
        }
        float_val: 0.0
      }
    }
  }
}
node {
  name: "3/0/0/1/batch_normalization/moving_mean"
  op: "VarHandleOp"
  attr {
    key: "_class"
    value {
      list {
        s: "loc:@3/0/0/1/batch_normalization/moving_mean"
      }
    }
  }
  attr {
    key: "container"
    value {
      s: ""
    }
  }
  attr {
    key: "dtype"
    value {
      type: DT_FLOAT
    }
  }
  attr {
    key: "shape"
    value {
      shape {
        dim {
          size: 32
        }
      }
    }
  }
  attr {
    key: "shared_name"
    value {
      s: "3/0/0/1/batch_normalization/moving_mean"
    }
  }
}
node {
  name: "3/0/0/1/batch_normalization/moving_mean/IsInitialized/VarIsInitializedOp"
  op: "VarIsInitializedOp"
  input: "3/0/0/1/batch_normalization/moving_mean"
}
node {
  name: "3/0/0/1/batch_normalization/moving_mean/Assign"
  op: "AssignVariableOp"
  input: "3/0/0/1/batch_normalization/moving_mean"
  input: "3/0/0/1/batch_normalization/moving_mean/Initializer/zeros"
  attr {
    key: "dtype"
    value {
      type: DT_FLOAT
    }
  }
}
node {
  name: "3/0/0/1/batch_normalization/moving_mean/Read/ReadVariableOp"
  op: "ReadVariableOp"
  input: "3/0/0/1/batch_normalization/moving_mean"
  attr {
    key: "dtype"
    value {
      type: DT_FLOAT
    }
  }
}
node {
  name: "3/0/0/1/batch_normalization/moving_variance/Initializer/ones"
  op: "Const"
  attr {
    key: "_class"
    value {
      list {
        s: "loc:@3/0/0/1/batch_normalization/moving_variance"
      }
    }
  }
  attr {
    key: "dtype"
    value {
      type: DT_FLOAT
    }
  }
  attr {
    key: "value"
    value {
      tensor {
        dtype: DT_FLOAT
        tensor_shape {
          dim {
            size: 32
          }
        }
        float_val: 1.0
      }
    }
  }
}
node {
  name: "3/0/0/1/batch_normalization/moving_variance"
  op: "VarHandleOp"
  attr {
    key: "_class"
    value {
      list {
        s: "loc:@3/0/0/1/batch_normalization/moving_variance"
      }
    }
  }
  attr {
    key: "container"
    value {
      s: ""
    }
  }
  attr {
    key: "dtype"
    value {
      type: DT_FLOAT
    }
  }
  attr {
    key: "shape"
    value {
      shape {
        dim {
          size: 32
        }
      }
    }
  }
  attr {
    key: "shared_name"
    value {
      s: "3/0/0/1/batch_normalization/moving_variance"
    }
  }
}
node {
  name: "3/0/0/1/batch_normalization/moving_variance/IsInitialized/VarIsInitializedOp"
  op: "VarIsInitializedOp"
  input: "3/0/0/1/batch_normalization/moving_variance"
}
node {
  name: "3/0/0/1/batch_normalization/moving_variance/Assign"
  op: "AssignVariableOp"
  input: "3/0/0/1/batch_normalization/moving_variance"
  input: "3/0/0/1/batch_normalization/moving_variance/Initializer/ones"
  attr {
    key: "dtype"
    value {
      type: DT_FLOAT
    }
  }
}
node {
  name: "3/0/0/1/batch_normalization/moving_variance/Read/ReadVariableOp"
  op: "ReadVariableOp"
  input: "3/0/0/1/batch_normalization/moving_variance"
  attr {
    key: "dtype"
    value {
      type: DT_FLOAT
    }
  }
}
node {
  name: "module/3/0/0/1/batch_normalization/FusedBatchNormV3/ReadVariableOp"
  op: "ReadVariableOp"
  input: "3/0/0/1/batch_normalization/moving_mean"
  attr {
    key: "dtype"
    value {
      type: DT_FLOAT
    }
  }
}
node {
  name: "module/3/0/0/1/batch_normalization/FusedBatchNormV3/ReadVariableOp_1"
  op: "ReadVariableOp"
  input: "3/0/0/1/batch_normalization/moving_variance"
  attr {
    key: "dtype"
    value {
      type: DT_FLOAT
    }
  }
}
node {
  name: "module/3/0/0/1/batch_normalization/FusedBatchNormV3"
  op: "FusedBatchNormV3"
  input: "module/3/0/0/1/conv2d/BiasAdd"
  input: "module/3/0/0/1/batch_normalization/Const"
  input: "module/3/0/0/1/batch_normalization/Const_1"
  input: "module/3/0/0/1/batch_normalization/FusedBatchNormV3/ReadVariableOp"
  input: "module/3/0/0/1/batch_normalization/FusedBatchNormV3/ReadVariableOp_1"
  attr {
    key: "T"
    value {
      type: DT_FLOAT
    }
  }
  attr {
    key: "U"
    value {
      type: DT_FLOAT
    }
  }
  attr {
    key: "data_format"
    value {
      s: "NHWC"
    }
  }
  attr {
    key: "epsilon"
    value {
      f: 0.0010000000474974513
    }
  }
  attr {
    key: "is_training"
    value {
      b: false
    }
  }
}
node {
  name: "module/3/0/0/1/batch_normalization/Const_2"
  op: "Const"
  attr {
    key: "dtype"
    value {
      type: DT_FLOAT
    }
  }
  attr {
    key: "value"
    value {
      tensor {
        dtype: DT_FLOAT
        tensor_shape {
        }
        float_val: 0.9900000095367432
      }
    }
  }
}
node {
  name: "module/3/0/0/1/Relu"
  op: "Relu"
  input: "module/3/0/0/1/batch_normalization/FusedBatchNormV3"
  attr {
    key: "T"
    value {
      type: DT_FLOAT
    }
  }
}
node {
  name: "3/0/0/1/conv2d_1/kernel/Initializer/random_uniform/shape"
  op: "Const"
  attr {
    key: "_class"
    value {
      list {
        s: "loc:@3/0/0/1/conv2d_1/kernel"
      }
    }
  }
  attr {
    key: "dtype"
    value {
      type: DT_INT32
    }
  }
  attr {
    key: "value"
    value {
      tensor {
        dtype: DT_INT32
        tensor_shape {
          dim {
            size: 4
          }
        }
        tensor_content: "\001\000\000\000\001\000\000\000\200\000\000\000 \000\000\000"
      }
    }
  }
}
node {
  name: "3/0/0/1/conv2d_1/kernel/Initializer/random_uniform/min"
  op: "Const"
  attr {
    key: "_class"
    value {
      list {
        s: "loc:@3/0/0/1/conv2d_1/kernel"
      }
    }
  }
  attr {
    key: "dtype"
    value {
      type: DT_FLOAT
    }
  }
  attr {
    key: "value"
    value {
      tensor {
        dtype: DT_FLOAT
        tensor_shape {
        }
        float_val: -0.19364917278289795
      }
    }
  }
}
node {
  name: "3/0/0/1/conv2d_1/kernel/Initializer/random_uniform/max"
  op: "Const"
  attr {
    key: "_class"
    value {
      list {
        s: "loc:@3/0/0/1/conv2d_1/kernel"
      }
    }
  }
  attr {
    key: "dtype"
    value {
      type: DT_FLOAT
    }
  }
  attr {
    key: "value"
    value {
      tensor {
        dtype: DT_FLOAT
        tensor_shape {
        }
        float_val: 0.19364917278289795
      }
    }
  }
}
node {
  name: "3/0/0/1/conv2d_1/kernel/Initializer/random_uniform/RandomUniform"
  op: "RandomUniform"
  input: "3/0/0/1/conv2d_1/kernel/Initializer/random_uniform/shape"
  attr {
    key: "T"
    value {
      type: DT_INT32
    }
  }
  attr {
    key: "_class"
    value {
      list {
        s: "loc:@3/0/0/1/conv2d_1/kernel"
      }
    }
  }
  attr {
    key: "dtype"
    value {
      type: DT_FLOAT
    }
  }
  attr {
    key: "seed"
    value {
      i: 0
    }
  }
  attr {
    key: "seed2"
    value {
      i: 0
    }
  }
}
node {
  name: "3/0/0/1/conv2d_1/kernel/Initializer/random_uniform/sub"
  op: "Sub"
  input: "3/0/0/1/conv2d_1/kernel/Initializer/random_uniform/max"
  input: "3/0/0/1/conv2d_1/kernel/Initializer/random_uniform/min"
  attr {
    key: "T"
    value {
      type: DT_FLOAT
    }
  }
  attr {
    key: "_class"
    value {
      list {
        s: "loc:@3/0/0/1/conv2d_1/kernel"
      }
    }
  }
}
node {
  name: "3/0/0/1/conv2d_1/kernel/Initializer/random_uniform/mul"
  op: "Mul"
  input: "3/0/0/1/conv2d_1/kernel/Initializer/random_uniform/RandomUniform"
  input: "3/0/0/1/conv2d_1/kernel/Initializer/random_uniform/sub"
  attr {
    key: "T"
    value {
      type: DT_FLOAT
    }
  }
  attr {
    key: "_class"
    value {
      list {
        s: "loc:@3/0/0/1/conv2d_1/kernel"
      }
    }
  }
}
node {
  name: "3/0/0/1/conv2d_1/kernel/Initializer/random_uniform"
  op: "Add"
  input: "3/0/0/1/conv2d_1/kernel/Initializer/random_uniform/mul"
  input: "3/0/0/1/conv2d_1/kernel/Initializer/random_uniform/min"
  attr {
    key: "T"
    value {
      type: DT_FLOAT
    }
  }
  attr {
    key: "_class"
    value {
      list {
        s: "loc:@3/0/0/1/conv2d_1/kernel"
      }
    }
  }
}
node {
  name: "3/0/0/1/conv2d_1/kernel"
  op: "VarHandleOp"
  attr {
    key: "_class"
    value {
      list {
        s: "loc:@3/0/0/1/conv2d_1/kernel"
      }
    }
  }
  attr {
    key: "container"
    value {
      s: ""
    }
  }
  attr {
    key: "dtype"
    value {
      type: DT_FLOAT
    }
  }
  attr {
    key: "shape"
    value {
      shape {
        dim {
          size: 1
        }
        dim {
          size: 1
        }
        dim {
          size: 128
        }
        dim {
          size: 32
        }
      }
    }
  }
  attr {
    key: "shared_name"
    value {
      s: "3/0/0/1/conv2d_1/kernel"
    }
  }
}
node {
  name: "3/0/0/1/conv2d_1/kernel/IsInitialized/VarIsInitializedOp"
  op: "VarIsInitializedOp"
  input: "3/0/0/1/conv2d_1/kernel"
}
node {
  name: "3/0/0/1/conv2d_1/kernel/Assign"
  op: "AssignVariableOp"
  input: "3/0/0/1/conv2d_1/kernel"
  input: "3/0/0/1/conv2d_1/kernel/Initializer/random_uniform"
  attr {
    key: "dtype"
    value {
      type: DT_FLOAT
    }
  }
}
node {
  name: "3/0/0/1/conv2d_1/kernel/Read/ReadVariableOp"
  op: "ReadVariableOp"
  input: "3/0/0/1/conv2d_1/kernel"
  attr {
    key: "dtype"
    value {
      type: DT_FLOAT
    }
  }
}
node {
  name: "3/0/0/1/conv2d_1/bias/Initializer/zeros"
  op: "Const"
  attr {
    key: "_class"
    value {
      list {
        s: "loc:@3/0/0/1/conv2d_1/bias"
      }
    }
  }
  attr {
    key: "dtype"
    value {
      type: DT_FLOAT
    }
  }
  attr {
    key: "value"
    value {
      tensor {
        dtype: DT_FLOAT
        tensor_shape {
          dim {
            size: 32
          }
        }
        float_val: 0.0
      }
    }
  }
}
node {
  name: "3/0/0/1/conv2d_1/bias"
  op: "VarHandleOp"
  attr {
    key: "_class"
    value {
      list {
        s: "loc:@3/0/0/1/conv2d_1/bias"
      }
    }
  }
  attr {
    key: "container"
    value {
      s: ""
    }
  }
  attr {
    key: "dtype"
    value {
      type: DT_FLOAT
    }
  }
  attr {
    key: "shape"
    value {
      shape {
        dim {
          size: 32
        }
      }
    }
  }
  attr {
    key: "shared_name"
    value {
      s: "3/0/0/1/conv2d_1/bias"
    }
  }
}
node {
  name: "3/0/0/1/conv2d_1/bias/IsInitialized/VarIsInitializedOp"
  op: "VarIsInitializedOp"
  input: "3/0/0/1/conv2d_1/bias"
}
node {
  name: "3/0/0/1/conv2d_1/bias/Assign"
  op: "AssignVariableOp"
  input: "3/0/0/1/conv2d_1/bias"
  input: "3/0/0/1/conv2d_1/bias/Initializer/zeros"
  attr {
    key: "dtype"
    value {
      type: DT_FLOAT
    }
  }
}
node {
  name: "3/0/0/1/conv2d_1/bias/Read/ReadVariableOp"
  op: "ReadVariableOp"
  input: "3/0/0/1/conv2d_1/bias"
  attr {
    key: "dtype"
    value {
      type: DT_FLOAT
    }
  }
}
node {
  name: "module/3/0/0/1/conv2d_1/dilation_rate"
  op: "Const"
  attr {
    key: "dtype"
    value {
      type: DT_INT32
    }
  }
  attr {
    key: "value"
    value {
      tensor {
        dtype: DT_INT32
        tensor_shape {
          dim {
            size: 2
          }
        }
        tensor_content: "\001\000\000\000\001\000\000\000"
      }
    }
  }
}
node {
  name: "module/3/0/0/1/conv2d_1/Conv2D/ReadVariableOp"
  op: "ReadVariableOp"
  input: "3/0/0/1/conv2d_1/kernel"
  attr {
    key: "dtype"
    value {
      type: DT_FLOAT
    }
  }
}
node {
  name: "module/3/0/0/1/conv2d_1/Conv2D"
  op: "Conv2D"
  input: "module/3/0/0/0/max_pooling2d/MaxPool"
  input: "module/3/0/0/1/conv2d_1/Conv2D/ReadVariableOp"
  attr {
    key: "T"
    value {
      type: DT_FLOAT
    }
  }
  attr {
    key: "data_format"
    value {
      s: "NHWC"
    }
  }
  attr {
    key: "dilations"
    value {
      list {
        i: 1
        i: 1
        i: 1
        i: 1
      }
    }
  }
  attr {
    key: "explicit_paddings"
    value {
      list {
      }
    }
  }
  attr {
    key: "padding"
    value {
      s: "VALID"
    }
  }
  attr {
    key: "strides"
    value {
      list {
        i: 1
        i: 1
        i: 1
        i: 1
      }
    }
  }
  attr {
    key: "use_cudnn_on_gpu"
    value {
      b: true
    }
  }
}
node {
  name: "module/3/0/0/1/conv2d_1/BiasAdd/ReadVariableOp"
  op: "ReadVariableOp"
  input: "3/0/0/1/conv2d_1/bias"
  attr {
    key: "dtype"
    value {
      type: DT_FLOAT
    }
  }
}
node {
  name: "module/3/0/0/1/conv2d_1/BiasAdd"
  op: "BiasAdd"
  input: "module/3/0/0/1/conv2d_1/Conv2D"
  input: "module/3/0/0/1/conv2d_1/BiasAdd/ReadVariableOp"
  attr {
    key: "T"
    value {
      type: DT_FLOAT
    }
  }
  attr {
    key: "data_format"
    value {
      s: "NHWC"
    }
  }
}
node {
  name: "module/3/0/0/1/batch_normalization_1/Const"
  op: "Const"
  attr {
    key: "dtype"
    value {
      type: DT_FLOAT
    }
  }
  attr {
    key: "value"
    value {
      tensor {
        dtype: DT_FLOAT
        tensor_shape {
          dim {
            size: 32
          }
        }
        float_val: 1.0
      }
    }
  }
}
node {
  name: "module/3/0/0/1/batch_normalization_1/Const_1"
  op: "Const"
  attr {
    key: "dtype"
    value {
      type: DT_FLOAT
    }
  }
  attr {
    key: "value"
    value {
      tensor {
        dtype: DT_FLOAT
        tensor_shape {
          dim {
            size: 32
          }
        }
        float_val: 0.0
      }
    }
  }
}
node {
  name: "3/0/0/1/batch_normalization_1/moving_mean/Initializer/zeros"
  op: "Const"
  attr {
    key: "_class"
    value {
      list {
        s: "loc:@3/0/0/1/batch_normalization_1/moving_mean"
      }
    }
  }
  attr {
    key: "dtype"
    value {
      type: DT_FLOAT
    }
  }
  attr {
    key: "value"
    value {
      tensor {
        dtype: DT_FLOAT
        tensor_shape {
          dim {
            size: 32
          }
        }
        float_val: 0.0
      }
    }
  }
}
node {
  name: "3/0/0/1/batch_normalization_1/moving_mean"
  op: "VarHandleOp"
  attr {
    key: "_class"
    value {
      list {
        s: "loc:@3/0/0/1/batch_normalization_1/moving_mean"
      }
    }
  }
  attr {
    key: "container"
    value {
      s: ""
    }
  }
  attr {
    key: "dtype"
    value {
      type: DT_FLOAT
    }
  }
  attr {
    key: "shape"
    value {
      shape {
        dim {
          size: 32
        }
      }
    }
  }
  attr {
    key: "shared_name"
    value {
      s: "3/0/0/1/batch_normalization_1/moving_mean"
    }
  }
}
node {
  name: "3/0/0/1/batch_normalization_1/moving_mean/IsInitialized/VarIsInitializedOp"
  op: "VarIsInitializedOp"
  input: "3/0/0/1/batch_normalization_1/moving_mean"
}
node {
  name: "3/0/0/1/batch_normalization_1/moving_mean/Assign"
  op: "AssignVariableOp"
  input: "3/0/0/1/batch_normalization_1/moving_mean"
  input: "3/0/0/1/batch_normalization_1/moving_mean/Initializer/zeros"
  attr {
    key: "dtype"
    value {
      type: DT_FLOAT
    }
  }
}
node {
  name: "3/0/0/1/batch_normalization_1/moving_mean/Read/ReadVariableOp"
  op: "ReadVariableOp"
  input: "3/0/0/1/batch_normalization_1/moving_mean"
  attr {
    key: "dtype"
    value {
      type: DT_FLOAT
    }
  }
}
node {
  name: "3/0/0/1/batch_normalization_1/moving_variance/Initializer/ones"
  op: "Const"
  attr {
    key: "_class"
    value {
      list {
        s: "loc:@3/0/0/1/batch_normalization_1/moving_variance"
      }
    }
  }
  attr {
    key: "dtype"
    value {
      type: DT_FLOAT
    }
  }
  attr {
    key: "value"
    value {
      tensor {
        dtype: DT_FLOAT
        tensor_shape {
          dim {
            size: 32
          }
        }
        float_val: 1.0
      }
    }
  }
}
node {
  name: "3/0/0/1/batch_normalization_1/moving_variance"
  op: "VarHandleOp"
  attr {
    key: "_class"
    value {
      list {
        s: "loc:@3/0/0/1/batch_normalization_1/moving_variance"
      }
    }
  }
  attr {
    key: "container"
    value {
      s: ""
    }
  }
  attr {
    key: "dtype"
    value {
      type: DT_FLOAT
    }
  }
  attr {
    key: "shape"
    value {
      shape {
        dim {
          size: 32
        }
      }
    }
  }
  attr {
    key: "shared_name"
    value {
      s: "3/0/0/1/batch_normalization_1/moving_variance"
    }
  }
}
node {
  name: "3/0/0/1/batch_normalization_1/moving_variance/IsInitialized/VarIsInitializedOp"
  op: "VarIsInitializedOp"
  input: "3/0/0/1/batch_normalization_1/moving_variance"
}
node {
  name: "3/0/0/1/batch_normalization_1/moving_variance/Assign"
  op: "AssignVariableOp"
  input: "3/0/0/1/batch_normalization_1/moving_variance"
  input: "3/0/0/1/batch_normalization_1/moving_variance/Initializer/ones"
  attr {
    key: "dtype"
    value {
      type: DT_FLOAT
    }
  }
}
node {
  name: "3/0/0/1/batch_normalization_1/moving_variance/Read/ReadVariableOp"
  op: "ReadVariableOp"
  input: "3/0/0/1/batch_normalization_1/moving_variance"
  attr {
    key: "dtype"
    value {
      type: DT_FLOAT
    }
  }
}
node {
  name: "module/3/0/0/1/batch_normalization_1/FusedBatchNormV3/ReadVariableOp"
  op: "ReadVariableOp"
  input: "3/0/0/1/batch_normalization_1/moving_mean"
  attr {
    key: "dtype"
    value {
      type: DT_FLOAT
    }
  }
}
node {
  name: "module/3/0/0/1/batch_normalization_1/FusedBatchNormV3/ReadVariableOp_1"
  op: "ReadVariableOp"
  input: "3/0/0/1/batch_normalization_1/moving_variance"
  attr {
    key: "dtype"
    value {
      type: DT_FLOAT
    }
  }
}
node {
  name: "module/3/0/0/1/batch_normalization_1/FusedBatchNormV3"
  op: "FusedBatchNormV3"
  input: "module/3/0/0/1/conv2d_1/BiasAdd"
  input: "module/3/0/0/1/batch_normalization_1/Const"
  input: "module/3/0/0/1/batch_normalization_1/Const_1"
  input: "module/3/0/0/1/batch_normalization_1/FusedBatchNormV3/ReadVariableOp"
  input: "module/3/0/0/1/batch_normalization_1/FusedBatchNormV3/ReadVariableOp_1"
  attr {
    key: "T"
    value {
      type: DT_FLOAT
    }
  }
  attr {
    key: "U"
    value {
      type: DT_FLOAT
    }
  }
  attr {
    key: "data_format"
    value {
      s: "NHWC"
    }
  }
  attr {
    key: "epsilon"
    value {
      f: 0.0010000000474974513
    }
  }
  attr {
    key: "is_training"
    value {
      b: false
    }
  }
}
node {
  name: "module/3/0/0/1/batch_normalization_1/Const_2"
  op: "Const"
  attr {
    key: "dtype"
    value {
      type: DT_FLOAT
    }
  }
  attr {
    key: "value"
    value {
      tensor {
        dtype: DT_FLOAT
        tensor_shape {
        }
        float_val: 0.9900000095367432
      }
    }
  }
}
node {
  name: "module/3/0/0/1/Relu_1"
  op: "Relu"
  input: "module/3/0/0/1/batch_normalization_1/FusedBatchNormV3"
  attr {
    key: "T"
    value {
      type: DT_FLOAT
    }
  }
}
node {
  name: "3/0/0/1/conv2d_2/kernel/Initializer/random_uniform/shape"
  op: "Const"
  attr {
    key: "_class"
    value {
      list {
        s: "loc:@3/0/0/1/conv2d_2/kernel"
      }
    }
  }
  attr {
    key: "dtype"
    value {
      type: DT_INT32
    }
  }
  attr {
    key: "value"
    value {
      tensor {
        dtype: DT_INT32
        tensor_shape {
          dim {
            size: 4
          }
        }
        tensor_content: "\003\000\000\000\003\000\000\000 \000\000\000 \000\000\000"
      }
    }
  }
}
node {
  name: "3/0/0/1/conv2d_2/kernel/Initializer/random_uniform/min"
  op: "Const"
  attr {
    key: "_class"
    value {
      list {
        s: "loc:@3/0/0/1/conv2d_2/kernel"
      }
    }
  }
  attr {
    key: "dtype"
    value {
      type: DT_FLOAT
    }
  }
  attr {
    key: "value"
    value {
      tensor {
        dtype: DT_FLOAT
        tensor_shape {
        }
        float_val: -0.10206207633018494
      }
    }
  }
}
node {
  name: "3/0/0/1/conv2d_2/kernel/Initializer/random_uniform/max"
  op: "Const"
  attr {
    key: "_class"
    value {
      list {
        s: "loc:@3/0/0/1/conv2d_2/kernel"
      }
    }
  }
  attr {
    key: "dtype"
    value {
      type: DT_FLOAT
    }
  }
  attr {
    key: "value"
    value {
      tensor {
        dtype: DT_FLOAT
        tensor_shape {
        }
        float_val: 0.10206207633018494
      }
    }
  }
}
node {
  name: "3/0/0/1/conv2d_2/kernel/Initializer/random_uniform/RandomUniform"
  op: "RandomUniform"
  input: "3/0/0/1/conv2d_2/kernel/Initializer/random_uniform/shape"
  attr {
    key: "T"
    value {
      type: DT_INT32
    }
  }
  attr {
    key: "_class"
    value {
      list {
        s: "loc:@3/0/0/1/conv2d_2/kernel"
      }
    }
  }
  attr {
    key: "dtype"
    value {
      type: DT_FLOAT
    }
  }
  attr {
    key: "seed"
    value {
      i: 0
    }
  }
  attr {
    key: "seed2"
    value {
      i: 0
    }
  }
}
node {
  name: "3/0/0/1/conv2d_2/kernel/Initializer/random_uniform/sub"
  op: "Sub"
  input: "3/0/0/1/conv2d_2/kernel/Initializer/random_uniform/max"
  input: "3/0/0/1/conv2d_2/kernel/Initializer/random_uniform/min"
  attr {
    key: "T"
    value {
      type: DT_FLOAT
    }
  }
  attr {
    key: "_class"
    value {
      list {
        s: "loc:@3/0/0/1/conv2d_2/kernel"
      }
    }
  }
}
node {
  name: "3/0/0/1/conv2d_2/kernel/Initializer/random_uniform/mul"
  op: "Mul"
  input: "3/0/0/1/conv2d_2/kernel/Initializer/random_uniform/RandomUniform"
  input: "3/0/0/1/conv2d_2/kernel/Initializer/random_uniform/sub"
  attr {
    key: "T"
    value {
      type: DT_FLOAT
    }
  }
  attr {
    key: "_class"
    value {
      list {
        s: "loc:@3/0/0/1/conv2d_2/kernel"
      }
    }
  }
}
node {
  name: "3/0/0/1/conv2d_2/kernel/Initializer/random_uniform"
  op: "Add"
  input: "3/0/0/1/conv2d_2/kernel/Initializer/random_uniform/mul"
  input: "3/0/0/1/conv2d_2/kernel/Initializer/random_uniform/min"
  attr {
    key: "T"
    value {
      type: DT_FLOAT
    }
  }
  attr {
    key: "_class"
    value {
      list {
        s: "loc:@3/0/0/1/conv2d_2/kernel"
      }
    }
  }
}
node {
  name: "3/0/0/1/conv2d_2/kernel"
  op: "VarHandleOp"
  attr {
    key: "_class"
    value {
      list {
        s: "loc:@3/0/0/1/conv2d_2/kernel"
      }
    }
  }
  attr {
    key: "container"
    value {
      s: ""
    }
  }
  attr {
    key: "dtype"
    value {
      type: DT_FLOAT
    }
  }
  attr {
    key: "shape"
    value {
      shape {
        dim {
          size: 3
        }
        dim {
          size: 3
        }
        dim {
          size: 32
        }
        dim {
          size: 32
        }
      }
    }
  }
  attr {
    key: "shared_name"
    value {
      s: "3/0/0/1/conv2d_2/kernel"
    }
  }
}
node {
  name: "3/0/0/1/conv2d_2/kernel/IsInitialized/VarIsInitializedOp"
  op: "VarIsInitializedOp"
  input: "3/0/0/1/conv2d_2/kernel"
}
node {
  name: "3/0/0/1/conv2d_2/kernel/Assign"
  op: "AssignVariableOp"
  input: "3/0/0/1/conv2d_2/kernel"
  input: "3/0/0/1/conv2d_2/kernel/Initializer/random_uniform"
  attr {
    key: "dtype"
    value {
      type: DT_FLOAT
    }
  }
}
node {
  name: "3/0/0/1/conv2d_2/kernel/Read/ReadVariableOp"
  op: "ReadVariableOp"
  input: "3/0/0/1/conv2d_2/kernel"
  attr {
    key: "dtype"
    value {
      type: DT_FLOAT
    }
  }
}
node {
  name: "3/0/0/1/conv2d_2/bias/Initializer/zeros"
  op: "Const"
  attr {
    key: "_class"
    value {
      list {
        s: "loc:@3/0/0/1/conv2d_2/bias"
      }
    }
  }
  attr {
    key: "dtype"
    value {
      type: DT_FLOAT
    }
  }
  attr {
    key: "value"
    value {
      tensor {
        dtype: DT_FLOAT
        tensor_shape {
          dim {
            size: 32
          }
        }
        float_val: 0.0
      }
    }
  }
}
node {
  name: "3/0/0/1/conv2d_2/bias"
  op: "VarHandleOp"
  attr {
    key: "_class"
    value {
      list {
        s: "loc:@3/0/0/1/conv2d_2/bias"
      }
    }
  }
  attr {
    key: "container"
    value {
      s: ""
    }
  }
  attr {
    key: "dtype"
    value {
      type: DT_FLOAT
    }
  }
  attr {
    key: "shape"
    value {
      shape {
        dim {
          size: 32
        }
      }
    }
  }
  attr {
    key: "shared_name"
    value {
      s: "3/0/0/1/conv2d_2/bias"
    }
  }
}
node {
  name: "3/0/0/1/conv2d_2/bias/IsInitialized/VarIsInitializedOp"
  op: "VarIsInitializedOp"
  input: "3/0/0/1/conv2d_2/bias"
}
node {
  name: "3/0/0/1/conv2d_2/bias/Assign"
  op: "AssignVariableOp"
  input: "3/0/0/1/conv2d_2/bias"
  input: "3/0/0/1/conv2d_2/bias/Initializer/zeros"
  attr {
    key: "dtype"
    value {
      type: DT_FLOAT
    }
  }
}
node {
  name: "3/0/0/1/conv2d_2/bias/Read/ReadVariableOp"
  op: "ReadVariableOp"
  input: "3/0/0/1/conv2d_2/bias"
  attr {
    key: "dtype"
    value {
      type: DT_FLOAT
    }
  }
}
node {
  name: "module/3/0/0/1/conv2d_2/dilation_rate"
  op: "Const"
  attr {
    key: "dtype"
    value {
      type: DT_INT32
    }
  }
  attr {
    key: "value"
    value {
      tensor {
        dtype: DT_INT32
        tensor_shape {
          dim {
            size: 2
          }
        }
        tensor_content: "\001\000\000\000\001\000\000\000"
      }
    }
  }
}
node {
  name: "module/3/0/0/1/conv2d_2/Conv2D/ReadVariableOp"
  op: "ReadVariableOp"
  input: "3/0/0/1/conv2d_2/kernel"
  attr {
    key: "dtype"
    value {
      type: DT_FLOAT
    }
  }
}
node {
  name: "module/3/0/0/1/conv2d_2/Conv2D"
  op: "Conv2D"
  input: "module/3/0/0/1/Relu_1"
  input: "module/3/0/0/1/conv2d_2/Conv2D/ReadVariableOp"
  attr {
    key: "T"
    value {
      type: DT_FLOAT
    }
  }
  attr {
    key: "data_format"
    value {
      s: "NHWC"
    }
  }
  attr {
    key: "dilations"
    value {
      list {
        i: 1
        i: 1
        i: 1
        i: 1
      }
    }
  }
  attr {
    key: "explicit_paddings"
    value {
      list {
      }
    }
  }
  attr {
    key: "padding"
    value {
      s: "SAME"
    }
  }
  attr {
    key: "strides"
    value {
      list {
        i: 1
        i: 1
        i: 1
        i: 1
      }
    }
  }
  attr {
    key: "use_cudnn_on_gpu"
    value {
      b: true
    }
  }
}
node {
  name: "module/3/0/0/1/conv2d_2/BiasAdd/ReadVariableOp"
  op: "ReadVariableOp"
  input: "3/0/0/1/conv2d_2/bias"
  attr {
    key: "dtype"
    value {
      type: DT_FLOAT
    }
  }
}
node {
  name: "module/3/0/0/1/conv2d_2/BiasAdd"
  op: "BiasAdd"
  input: "module/3/0/0/1/conv2d_2/Conv2D"
  input: "module/3/0/0/1/conv2d_2/BiasAdd/ReadVariableOp"
  attr {
    key: "T"
    value {
      type: DT_FLOAT
    }
  }
  attr {
    key: "data_format"
    value {
      s: "NHWC"
    }
  }
}
node {
  name: "module/3/0/0/1/batch_normalization_2/Const"
  op: "Const"
  attr {
    key: "dtype"
    value {
      type: DT_FLOAT
    }
  }
  attr {
    key: "value"
    value {
      tensor {
        dtype: DT_FLOAT
        tensor_shape {
          dim {
            size: 32
          }
        }
        float_val: 1.0
      }
    }
  }
}
node {
  name: "module/3/0/0/1/batch_normalization_2/Const_1"
  op: "Const"
  attr {
    key: "dtype"
    value {
      type: DT_FLOAT
    }
  }
  attr {
    key: "value"
    value {
      tensor {
        dtype: DT_FLOAT
        tensor_shape {
          dim {
            size: 32
          }
        }
        float_val: 0.0
      }
    }
  }
}
node {
  name: "3/0/0/1/batch_normalization_2/moving_mean/Initializer/zeros"
  op: "Const"
  attr {
    key: "_class"
    value {
      list {
        s: "loc:@3/0/0/1/batch_normalization_2/moving_mean"
      }
    }
  }
  attr {
    key: "dtype"
    value {
      type: DT_FLOAT
    }
  }
  attr {
    key: "value"
    value {
      tensor {
        dtype: DT_FLOAT
        tensor_shape {
          dim {
            size: 32
          }
        }
        float_val: 0.0
      }
    }
  }
}
node {
  name: "3/0/0/1/batch_normalization_2/moving_mean"
  op: "VarHandleOp"
  attr {
    key: "_class"
    value {
      list {
        s: "loc:@3/0/0/1/batch_normalization_2/moving_mean"
      }
    }
  }
  attr {
    key: "container"
    value {
      s: ""
    }
  }
  attr {
    key: "dtype"
    value {
      type: DT_FLOAT
    }
  }
  attr {
    key: "shape"
    value {
      shape {
        dim {
          size: 32
        }
      }
    }
  }
  attr {
    key: "shared_name"
    value {
      s: "3/0/0/1/batch_normalization_2/moving_mean"
    }
  }
}
node {
  name: "3/0/0/1/batch_normalization_2/moving_mean/IsInitialized/VarIsInitializedOp"
  op: "VarIsInitializedOp"
  input: "3/0/0/1/batch_normalization_2/moving_mean"
}
node {
  name: "3/0/0/1/batch_normalization_2/moving_mean/Assign"
  op: "AssignVariableOp"
  input: "3/0/0/1/batch_normalization_2/moving_mean"
  input: "3/0/0/1/batch_normalization_2/moving_mean/Initializer/zeros"
  attr {
    key: "dtype"
    value {
      type: DT_FLOAT
    }
  }
}
node {
  name: "3/0/0/1/batch_normalization_2/moving_mean/Read/ReadVariableOp"
  op: "ReadVariableOp"
  input: "3/0/0/1/batch_normalization_2/moving_mean"
  attr {
    key: "dtype"
    value {
      type: DT_FLOAT
    }
  }
}
node {
  name: "3/0/0/1/batch_normalization_2/moving_variance/Initializer/ones"
  op: "Const"
  attr {
    key: "_class"
    value {
      list {
        s: "loc:@3/0/0/1/batch_normalization_2/moving_variance"
      }
    }
  }
  attr {
    key: "dtype"
    value {
      type: DT_FLOAT
    }
  }
  attr {
    key: "value"
    value {
      tensor {
        dtype: DT_FLOAT
        tensor_shape {
          dim {
            size: 32
          }
        }
        float_val: 1.0
      }
    }
  }
}
node {
  name: "3/0/0/1/batch_normalization_2/moving_variance"
  op: "VarHandleOp"
  attr {
    key: "_class"
    value {
      list {
        s: "loc:@3/0/0/1/batch_normalization_2/moving_variance"
      }
    }
  }
  attr {
    key: "container"
    value {
      s: ""
    }
  }
  attr {
    key: "dtype"
    value {
      type: DT_FLOAT
    }
  }
  attr {
    key: "shape"
    value {
      shape {
        dim {
          size: 32
        }
      }
    }
  }
  attr {
    key: "shared_name"
    value {
      s: "3/0/0/1/batch_normalization_2/moving_variance"
    }
  }
}
node {
  name: "3/0/0/1/batch_normalization_2/moving_variance/IsInitialized/VarIsInitializedOp"
  op: "VarIsInitializedOp"
  input: "3/0/0/1/batch_normalization_2/moving_variance"
}
node {
  name: "3/0/0/1/batch_normalization_2/moving_variance/Assign"
  op: "AssignVariableOp"
  input: "3/0/0/1/batch_normalization_2/moving_variance"
  input: "3/0/0/1/batch_normalization_2/moving_variance/Initializer/ones"
  attr {
    key: "dtype"
    value {
      type: DT_FLOAT
    }
  }
}
node {
  name: "3/0/0/1/batch_normalization_2/moving_variance/Read/ReadVariableOp"
  op: "ReadVariableOp"
  input: "3/0/0/1/batch_normalization_2/moving_variance"
  attr {
    key: "dtype"
    value {
      type: DT_FLOAT
    }
  }
}
node {
  name: "module/3/0/0/1/batch_normalization_2/FusedBatchNormV3/ReadVariableOp"
  op: "ReadVariableOp"
  input: "3/0/0/1/batch_normalization_2/moving_mean"
  attr {
    key: "dtype"
    value {
      type: DT_FLOAT
    }
  }
}
node {
  name: "module/3/0/0/1/batch_normalization_2/FusedBatchNormV3/ReadVariableOp_1"
  op: "ReadVariableOp"
  input: "3/0/0/1/batch_normalization_2/moving_variance"
  attr {
    key: "dtype"
    value {
      type: DT_FLOAT
    }
  }
}
node {
  name: "module/3/0/0/1/batch_normalization_2/FusedBatchNormV3"
  op: "FusedBatchNormV3"
  input: "module/3/0/0/1/conv2d_2/BiasAdd"
  input: "module/3/0/0/1/batch_normalization_2/Const"
  input: "module/3/0/0/1/batch_normalization_2/Const_1"
  input: "module/3/0/0/1/batch_normalization_2/FusedBatchNormV3/ReadVariableOp"
  input: "module/3/0/0/1/batch_normalization_2/FusedBatchNormV3/ReadVariableOp_1"
  attr {
    key: "T"
    value {
      type: DT_FLOAT
    }
  }
  attr {
    key: "U"
    value {
      type: DT_FLOAT
    }
  }
  attr {
    key: "data_format"
    value {
      s: "NHWC"
    }
  }
  attr {
    key: "epsilon"
    value {
      f: 0.0010000000474974513
    }
  }
  attr {
    key: "is_training"
    value {
      b: false
    }
  }
}
node {
  name: "module/3/0/0/1/batch_normalization_2/Const_2"
  op: "Const"
  attr {
    key: "dtype"
    value {
      type: DT_FLOAT
    }
  }
  attr {
    key: "value"
    value {
      tensor {
        dtype: DT_FLOAT
        tensor_shape {
        }
        float_val: 0.9900000095367432
      }
    }
  }
}
node {
  name: "module/3/0/0/1/Relu_2"
  op: "Relu"
  input: "module/3/0/0/1/batch_normalization_2/FusedBatchNormV3"
  attr {
    key: "T"
    value {
      type: DT_FLOAT
    }
  }
}
node {
  name: "3/0/0/1/conv2d_3/kernel/Initializer/random_uniform/shape"
  op: "Const"
  attr {
    key: "_class"
    value {
      list {
        s: "loc:@3/0/0/1/conv2d_3/kernel"
      }
    }
  }
  attr {
    key: "dtype"
    value {
      type: DT_INT32
    }
  }
  attr {
    key: "value"
    value {
      tensor {
        dtype: DT_INT32
        tensor_shape {
          dim {
            size: 4
          }
        }
        tensor_content: "\001\000\000\000\001\000\000\000\200\000\000\000 \000\000\000"
      }
    }
  }
}
node {
  name: "3/0/0/1/conv2d_3/kernel/Initializer/random_uniform/min"
  op: "Const"
  attr {
    key: "_class"
    value {
      list {
        s: "loc:@3/0/0/1/conv2d_3/kernel"
      }
    }
  }
  attr {
    key: "dtype"
    value {
      type: DT_FLOAT
    }
  }
  attr {
    key: "value"
    value {
      tensor {
        dtype: DT_FLOAT
        tensor_shape {
        }
        float_val: -0.19364917278289795
      }
    }
  }
}
node {
  name: "3/0/0/1/conv2d_3/kernel/Initializer/random_uniform/max"
  op: "Const"
  attr {
    key: "_class"
    value {
      list {
        s: "loc:@3/0/0/1/conv2d_3/kernel"
      }
    }
  }
  attr {
    key: "dtype"
    value {
      type: DT_FLOAT
    }
  }
  attr {
    key: "value"
    value {
      tensor {
        dtype: DT_FLOAT
        tensor_shape {
        }
        float_val: 0.19364917278289795
      }
    }
  }
}
node {
  name: "3/0/0/1/conv2d_3/kernel/Initializer/random_uniform/RandomUniform"
  op: "RandomUniform"
  input: "3/0/0/1/conv2d_3/kernel/Initializer/random_uniform/shape"
  attr {
    key: "T"
    value {
      type: DT_INT32
    }
  }
  attr {
    key: "_class"
    value {
      list {
        s: "loc:@3/0/0/1/conv2d_3/kernel"
      }
    }
  }
  attr {
    key: "dtype"
    value {
      type: DT_FLOAT
    }
  }
  attr {
    key: "seed"
    value {
      i: 0
    }
  }
  attr {
    key: "seed2"
    value {
      i: 0
    }
  }
}
node {
  name: "3/0/0/1/conv2d_3/kernel/Initializer/random_uniform/sub"
  op: "Sub"
  input: "3/0/0/1/conv2d_3/kernel/Initializer/random_uniform/max"
  input: "3/0/0/1/conv2d_3/kernel/Initializer/random_uniform/min"
  attr {
    key: "T"
    value {
      type: DT_FLOAT
    }
  }
  attr {
    key: "_class"
    value {
      list {
        s: "loc:@3/0/0/1/conv2d_3/kernel"
      }
    }
  }
}
node {
  name: "3/0/0/1/conv2d_3/kernel/Initializer/random_uniform/mul"
  op: "Mul"
  input: "3/0/0/1/conv2d_3/kernel/Initializer/random_uniform/RandomUniform"
  input: "3/0/0/1/conv2d_3/kernel/Initializer/random_uniform/sub"
  attr {
    key: "T"
    value {
      type: DT_FLOAT
    }
  }
  attr {
    key: "_class"
    value {
      list {
        s: "loc:@3/0/0/1/conv2d_3/kernel"
      }
    }
  }
}
node {
  name: "3/0/0/1/conv2d_3/kernel/Initializer/random_uniform"
  op: "Add"
  input: "3/0/0/1/conv2d_3/kernel/Initializer/random_uniform/mul"
  input: "3/0/0/1/conv2d_3/kernel/Initializer/random_uniform/min"
  attr {
    key: "T"
    value {
      type: DT_FLOAT
    }
  }
  attr {
    key: "_class"
    value {
      list {
        s: "loc:@3/0/0/1/conv2d_3/kernel"
      }
    }
  }
}
node {
  name: "3/0/0/1/conv2d_3/kernel"
  op: "VarHandleOp"
  attr {
    key: "_class"
    value {
      list {
        s: "loc:@3/0/0/1/conv2d_3/kernel"
      }
    }
  }
  attr {
    key: "container"
    value {
      s: ""
    }
  }
  attr {
    key: "dtype"
    value {
      type: DT_FLOAT
    }
  }
  attr {
    key: "shape"
    value {
      shape {
        dim {
          size: 1
        }
        dim {
          size: 1
        }
        dim {
          size: 128
        }
        dim {
          size: 32
        }
      }
    }
  }
  attr {
    key: "shared_name"
    value {
      s: "3/0/0/1/conv2d_3/kernel"
    }
  }
}
node {
  name: "3/0/0/1/conv2d_3/kernel/IsInitialized/VarIsInitializedOp"
  op: "VarIsInitializedOp"
  input: "3/0/0/1/conv2d_3/kernel"
}
node {
  name: "3/0/0/1/conv2d_3/kernel/Assign"
  op: "AssignVariableOp"
  input: "3/0/0/1/conv2d_3/kernel"
  input: "3/0/0/1/conv2d_3/kernel/Initializer/random_uniform"
  attr {
    key: "dtype"
    value {
      type: DT_FLOAT
    }
  }
}
node {
  name: "3/0/0/1/conv2d_3/kernel/Read/ReadVariableOp"
  op: "ReadVariableOp"
  input: "3/0/0/1/conv2d_3/kernel"
  attr {
    key: "dtype"
    value {
      type: DT_FLOAT
    }
  }
}
node {
  name: "3/0/0/1/conv2d_3/bias/Initializer/zeros"
  op: "Const"
  attr {
    key: "_class"
    value {
      list {
        s: "loc:@3/0/0/1/conv2d_3/bias"
      }
    }
  }
  attr {
    key: "dtype"
    value {
      type: DT_FLOAT
    }
  }
  attr {
    key: "value"
    value {
      tensor {
        dtype: DT_FLOAT
        tensor_shape {
          dim {
            size: 32
          }
        }
        float_val: 0.0
      }
    }
  }
}
node {
  name: "3/0/0/1/conv2d_3/bias"
  op: "VarHandleOp"
  attr {
    key: "_class"
    value {
      list {
        s: "loc:@3/0/0/1/conv2d_3/bias"
      }
    }
  }
  attr {
    key: "container"
    value {
      s: ""
    }
  }
  attr {
    key: "dtype"
    value {
      type: DT_FLOAT
    }
  }
  attr {
    key: "shape"
    value {
      shape {
        dim {
          size: 32
        }
      }
    }
  }
  attr {
    key: "shared_name"
    value {
      s: "3/0/0/1/conv2d_3/bias"
    }
  }
}
node {
  name: "3/0/0/1/conv2d_3/bias/IsInitialized/VarIsInitializedOp"
  op: "VarIsInitializedOp"
  input: "3/0/0/1/conv2d_3/bias"
}
node {
  name: "3/0/0/1/conv2d_3/bias/Assign"
  op: "AssignVariableOp"
  input: "3/0/0/1/conv2d_3/bias"
  input: "3/0/0/1/conv2d_3/bias/Initializer/zeros"
  attr {
    key: "dtype"
    value {
      type: DT_FLOAT
    }
  }
}
node {
  name: "3/0/0/1/conv2d_3/bias/Read/ReadVariableOp"
  op: "ReadVariableOp"
  input: "3/0/0/1/conv2d_3/bias"
  attr {
    key: "dtype"
    value {
      type: DT_FLOAT
    }
  }
}
node {
  name: "module/3/0/0/1/conv2d_3/dilation_rate"
  op: "Const"
  attr {
    key: "dtype"
    value {
      type: DT_INT32
    }
  }
  attr {
    key: "value"
    value {
      tensor {
        dtype: DT_INT32
        tensor_shape {
          dim {
            size: 2
          }
        }
        tensor_content: "\001\000\000\000\001\000\000\000"
      }
    }
  }
}
node {
  name: "module/3/0/0/1/conv2d_3/Conv2D/ReadVariableOp"
  op: "ReadVariableOp"
  input: "3/0/0/1/conv2d_3/kernel"
  attr {
    key: "dtype"
    value {
      type: DT_FLOAT
    }
  }
}
node {
  name: "module/3/0/0/1/conv2d_3/Conv2D"
  op: "Conv2D"
  input: "module/3/0/0/0/max_pooling2d/MaxPool"
  input: "module/3/0/0/1/conv2d_3/Conv2D/ReadVariableOp"
  attr {
    key: "T"
    value {
      type: DT_FLOAT
    }
  }
  attr {
    key: "data_format"
    value {
      s: "NHWC"
    }
  }
  attr {
    key: "dilations"
    value {
      list {
        i: 1
        i: 1
        i: 1
        i: 1
      }
    }
  }
  attr {
    key: "explicit_paddings"
    value {
      list {
      }
    }
  }
  attr {
    key: "padding"
    value {
      s: "VALID"
    }
  }
  attr {
    key: "strides"
    value {
      list {
        i: 1
        i: 1
        i: 1
        i: 1
      }
    }
  }
  attr {
    key: "use_cudnn_on_gpu"
    value {
      b: true
    }
  }
}
node {
  name: "module/3/0/0/1/conv2d_3/BiasAdd/ReadVariableOp"
  op: "ReadVariableOp"
  input: "3/0/0/1/conv2d_3/bias"
  attr {
    key: "dtype"
    value {
      type: DT_FLOAT
    }
  }
}
node {
  name: "module/3/0/0/1/conv2d_3/BiasAdd"
  op: "BiasAdd"
  input: "module/3/0/0/1/conv2d_3/Conv2D"
  input: "module/3/0/0/1/conv2d_3/BiasAdd/ReadVariableOp"
  attr {
    key: "T"
    value {
      type: DT_FLOAT
    }
  }
  attr {
    key: "data_format"
    value {
      s: "NHWC"
    }
  }
}
node {
  name: "module/3/0/0/1/batch_normalization_3/Const"
  op: "Const"
  attr {
    key: "dtype"
    value {
      type: DT_FLOAT
    }
  }
  attr {
    key: "value"
    value {
      tensor {
        dtype: DT_FLOAT
        tensor_shape {
          dim {
            size: 32
          }
        }
        float_val: 1.0
      }
    }
  }
}
node {
  name: "module/3/0/0/1/batch_normalization_3/Const_1"
  op: "Const"
  attr {
    key: "dtype"
    value {
      type: DT_FLOAT
    }
  }
  attr {
    key: "value"
    value {
      tensor {
        dtype: DT_FLOAT
        tensor_shape {
          dim {
            size: 32
          }
        }
        float_val: 0.0
      }
    }
  }
}
node {
  name: "3/0/0/1/batch_normalization_3/moving_mean/Initializer/zeros"
  op: "Const"
  attr {
    key: "_class"
    value {
      list {
        s: "loc:@3/0/0/1/batch_normalization_3/moving_mean"
      }
    }
  }
  attr {
    key: "dtype"
    value {
      type: DT_FLOAT
    }
  }
  attr {
    key: "value"
    value {
      tensor {
        dtype: DT_FLOAT
        tensor_shape {
          dim {
            size: 32
          }
        }
        float_val: 0.0
      }
    }
  }
}
node {
  name: "3/0/0/1/batch_normalization_3/moving_mean"
  op: "VarHandleOp"
  attr {
    key: "_class"
    value {
      list {
        s: "loc:@3/0/0/1/batch_normalization_3/moving_mean"
      }
    }
  }
  attr {
    key: "container"
    value {
      s: ""
    }
  }
  attr {
    key: "dtype"
    value {
      type: DT_FLOAT
    }
  }
  attr {
    key: "shape"
    value {
      shape {
        dim {
          size: 32
        }
      }
    }
  }
  attr {
    key: "shared_name"
    value {
      s: "3/0/0/1/batch_normalization_3/moving_mean"
    }
  }
}
node {
  name: "3/0/0/1/batch_normalization_3/moving_mean/IsInitialized/VarIsInitializedOp"
  op: "VarIsInitializedOp"
  input: "3/0/0/1/batch_normalization_3/moving_mean"
}
node {
  name: "3/0/0/1/batch_normalization_3/moving_mean/Assign"
  op: "AssignVariableOp"
  input: "3/0/0/1/batch_normalization_3/moving_mean"
  input: "3/0/0/1/batch_normalization_3/moving_mean/Initializer/zeros"
  attr {
    key: "dtype"
    value {
      type: DT_FLOAT
    }
  }
}
node {
  name: "3/0/0/1/batch_normalization_3/moving_mean/Read/ReadVariableOp"
  op: "ReadVariableOp"
  input: "3/0/0/1/batch_normalization_3/moving_mean"
  attr {
    key: "dtype"
    value {
      type: DT_FLOAT
    }
  }
}
node {
  name: "3/0/0/1/batch_normalization_3/moving_variance/Initializer/ones"
  op: "Const"
  attr {
    key: "_class"
    value {
      list {
        s: "loc:@3/0/0/1/batch_normalization_3/moving_variance"
      }
    }
  }
  attr {
    key: "dtype"
    value {
      type: DT_FLOAT
    }
  }
  attr {
    key: "value"
    value {
      tensor {
        dtype: DT_FLOAT
        tensor_shape {
          dim {
            size: 32
          }
        }
        float_val: 1.0
      }
    }
  }
}
node {
  name: "3/0/0/1/batch_normalization_3/moving_variance"
  op: "VarHandleOp"
  attr {
    key: "_class"
    value {
      list {
        s: "loc:@3/0/0/1/batch_normalization_3/moving_variance"
      }
    }
  }
  attr {
    key: "container"
    value {
      s: ""
    }
  }
  attr {
    key: "dtype"
    value {
      type: DT_FLOAT
    }
  }
  attr {
    key: "shape"
    value {
      shape {
        dim {
          size: 32
        }
      }
    }
  }
  attr {
    key: "shared_name"
    value {
      s: "3/0/0/1/batch_normalization_3/moving_variance"
    }
  }
}
node {
  name: "3/0/0/1/batch_normalization_3/moving_variance/IsInitialized/VarIsInitializedOp"
  op: "VarIsInitializedOp"
  input: "3/0/0/1/batch_normalization_3/moving_variance"
}
node {
  name: "3/0/0/1/batch_normalization_3/moving_variance/Assign"
  op: "AssignVariableOp"
  input: "3/0/0/1/batch_normalization_3/moving_variance"
  input: "3/0/0/1/batch_normalization_3/moving_variance/Initializer/ones"
  attr {
    key: "dtype"
    value {
      type: DT_FLOAT
    }
  }
}
node {
  name: "3/0/0/1/batch_normalization_3/moving_variance/Read/ReadVariableOp"
  op: "ReadVariableOp"
  input: "3/0/0/1/batch_normalization_3/moving_variance"
  attr {
    key: "dtype"
    value {
      type: DT_FLOAT
    }
  }
}
node {
  name: "module/3/0/0/1/batch_normalization_3/FusedBatchNormV3/ReadVariableOp"
  op: "ReadVariableOp"
  input: "3/0/0/1/batch_normalization_3/moving_mean"
  attr {
    key: "dtype"
    value {
      type: DT_FLOAT
    }
  }
}
node {
  name: "module/3/0/0/1/batch_normalization_3/FusedBatchNormV3/ReadVariableOp_1"
  op: "ReadVariableOp"
  input: "3/0/0/1/batch_normalization_3/moving_variance"
  attr {
    key: "dtype"
    value {
      type: DT_FLOAT
    }
  }
}
node {
  name: "module/3/0/0/1/batch_normalization_3/FusedBatchNormV3"
  op: "FusedBatchNormV3"
  input: "module/3/0/0/1/conv2d_3/BiasAdd"
  input: "module/3/0/0/1/batch_normalization_3/Const"
  input: "module/3/0/0/1/batch_normalization_3/Const_1"
  input: "module/3/0/0/1/batch_normalization_3/FusedBatchNormV3/ReadVariableOp"
  input: "module/3/0/0/1/batch_normalization_3/FusedBatchNormV3/ReadVariableOp_1"
  attr {
    key: "T"
    value {
      type: DT_FLOAT
    }
  }
  attr {
    key: "U"
    value {
      type: DT_FLOAT
    }
  }
  attr {
    key: "data_format"
    value {
      s: "NHWC"
    }
  }
  attr {
    key: "epsilon"
    value {
      f: 0.0010000000474974513
    }
  }
  attr {
    key: "is_training"
    value {
      b: false
    }
  }
}
node {
  name: "module/3/0/0/1/batch_normalization_3/Const_2"
  op: "Const"
  attr {
    key: "dtype"
    value {
      type: DT_FLOAT
    }
  }
  attr {
    key: "value"
    value {
      tensor {
        dtype: DT_FLOAT
        tensor_shape {
        }
        float_val: 0.9900000095367432
      }
    }
  }
}
node {
  name: "module/3/0/0/1/Relu_3"
  op: "Relu"
  input: "module/3/0/0/1/batch_normalization_3/FusedBatchNormV3"
  attr {
    key: "T"
    value {
      type: DT_FLOAT
    }
  }
}
node {
  name: "3/0/0/1/conv2d_4/kernel/Initializer/random_uniform/shape"
  op: "Const"
  attr {
    key: "_class"
    value {
      list {
        s: "loc:@3/0/0/1/conv2d_4/kernel"
      }
    }
  }
  attr {
    key: "dtype"
    value {
      type: DT_INT32
    }
  }
  attr {
    key: "value"
    value {
      tensor {
        dtype: DT_INT32
        tensor_shape {
          dim {
            size: 4
          }
        }
        tensor_content: "\005\000\000\000\005\000\000\000 \000\000\000 \000\000\000"
      }
    }
  }
}
node {
  name: "3/0/0/1/conv2d_4/kernel/Initializer/random_uniform/min"
  op: "Const"
  attr {
    key: "_class"
    value {
      list {
        s: "loc:@3/0/0/1/conv2d_4/kernel"
      }
    }
  }
  attr {
    key: "dtype"
    value {
      type: DT_FLOAT
    }
  }
  attr {
    key: "value"
    value {
      tensor {
        dtype: DT_FLOAT
        tensor_shape {
        }
        float_val: -0.06123724207282066
      }
    }
  }
}
node {
  name: "3/0/0/1/conv2d_4/kernel/Initializer/random_uniform/max"
  op: "Const"
  attr {
    key: "_class"
    value {
      list {
        s: "loc:@3/0/0/1/conv2d_4/kernel"
      }
    }
  }
  attr {
    key: "dtype"
    value {
      type: DT_FLOAT
    }
  }
  attr {
    key: "value"
    value {
      tensor {
        dtype: DT_FLOAT
        tensor_shape {
        }
        float_val: 0.06123724207282066
      }
    }
  }
}
node {
  name: "3/0/0/1/conv2d_4/kernel/Initializer/random_uniform/RandomUniform"
  op: "RandomUniform"
  input: "3/0/0/1/conv2d_4/kernel/Initializer/random_uniform/shape"
  attr {
    key: "T"
    value {
      type: DT_INT32
    }
  }
  attr {
    key: "_class"
    value {
      list {
        s: "loc:@3/0/0/1/conv2d_4/kernel"
      }
    }
  }
  attr {
    key: "dtype"
    value {
      type: DT_FLOAT
    }
  }
  attr {
    key: "seed"
    value {
      i: 0
    }
  }
  attr {
    key: "seed2"
    value {
      i: 0
    }
  }
}
node {
  name: "3/0/0/1/conv2d_4/kernel/Initializer/random_uniform/sub"
  op: "Sub"
  input: "3/0/0/1/conv2d_4/kernel/Initializer/random_uniform/max"
  input: "3/0/0/1/conv2d_4/kernel/Initializer/random_uniform/min"
  attr {
    key: "T"
    value {
      type: DT_FLOAT
    }
  }
  attr {
    key: "_class"
    value {
      list {
        s: "loc:@3/0/0/1/conv2d_4/kernel"
      }
    }
  }
}
node {
  name: "3/0/0/1/conv2d_4/kernel/Initializer/random_uniform/mul"
  op: "Mul"
  input: "3/0/0/1/conv2d_4/kernel/Initializer/random_uniform/RandomUniform"
  input: "3/0/0/1/conv2d_4/kernel/Initializer/random_uniform/sub"
  attr {
    key: "T"
    value {
      type: DT_FLOAT
    }
  }
  attr {
    key: "_class"
    value {
      list {
        s: "loc:@3/0/0/1/conv2d_4/kernel"
      }
    }
  }
}
node {
  name: "3/0/0/1/conv2d_4/kernel/Initializer/random_uniform"
  op: "Add"
  input: "3/0/0/1/conv2d_4/kernel/Initializer/random_uniform/mul"
  input: "3/0/0/1/conv2d_4/kernel/Initializer/random_uniform/min"
  attr {
    key: "T"
    value {
      type: DT_FLOAT
    }
  }
  attr {
    key: "_class"
    value {
      list {
        s: "loc:@3/0/0/1/conv2d_4/kernel"
      }
    }
  }
}
node {
  name: "3/0/0/1/conv2d_4/kernel"
  op: "VarHandleOp"
  attr {
    key: "_class"
    value {
      list {
        s: "loc:@3/0/0/1/conv2d_4/kernel"
      }
    }
  }
  attr {
    key: "container"
    value {
      s: ""
    }
  }
  attr {
    key: "dtype"
    value {
      type: DT_FLOAT
    }
  }
  attr {
    key: "shape"
    value {
      shape {
        dim {
          size: 5
        }
        dim {
          size: 5
        }
        dim {
          size: 32
        }
        dim {
          size: 32
        }
      }
    }
  }
  attr {
    key: "shared_name"
    value {
      s: "3/0/0/1/conv2d_4/kernel"
    }
  }
}
node {
  name: "3/0/0/1/conv2d_4/kernel/IsInitialized/VarIsInitializedOp"
  op: "VarIsInitializedOp"
  input: "3/0/0/1/conv2d_4/kernel"
}
node {
  name: "3/0/0/1/conv2d_4/kernel/Assign"
  op: "AssignVariableOp"
  input: "3/0/0/1/conv2d_4/kernel"
  input: "3/0/0/1/conv2d_4/kernel/Initializer/random_uniform"
  attr {
    key: "dtype"
    value {
      type: DT_FLOAT
    }
  }
}
node {
  name: "3/0/0/1/conv2d_4/kernel/Read/ReadVariableOp"
  op: "ReadVariableOp"
  input: "3/0/0/1/conv2d_4/kernel"
  attr {
    key: "dtype"
    value {
      type: DT_FLOAT
    }
  }
}
node {
  name: "3/0/0/1/conv2d_4/bias/Initializer/zeros"
  op: "Const"
  attr {
    key: "_class"
    value {
      list {
        s: "loc:@3/0/0/1/conv2d_4/bias"
      }
    }
  }
  attr {
    key: "dtype"
    value {
      type: DT_FLOAT
    }
  }
  attr {
    key: "value"
    value {
      tensor {
        dtype: DT_FLOAT
        tensor_shape {
          dim {
            size: 32
          }
        }
        float_val: 0.0
      }
    }
  }
}
node {
  name: "3/0/0/1/conv2d_4/bias"
  op: "VarHandleOp"
  attr {
    key: "_class"
    value {
      list {
        s: "loc:@3/0/0/1/conv2d_4/bias"
      }
    }
  }
  attr {
    key: "container"
    value {
      s: ""
    }
  }
  attr {
    key: "dtype"
    value {
      type: DT_FLOAT
    }
  }
  attr {
    key: "shape"
    value {
      shape {
        dim {
          size: 32
        }
      }
    }
  }
  attr {
    key: "shared_name"
    value {
      s: "3/0/0/1/conv2d_4/bias"
    }
  }
}
node {
  name: "3/0/0/1/conv2d_4/bias/IsInitialized/VarIsInitializedOp"
  op: "VarIsInitializedOp"
  input: "3/0/0/1/conv2d_4/bias"
}
node {
  name: "3/0/0/1/conv2d_4/bias/Assign"
  op: "AssignVariableOp"
  input: "3/0/0/1/conv2d_4/bias"
  input: "3/0/0/1/conv2d_4/bias/Initializer/zeros"
  attr {
    key: "dtype"
    value {
      type: DT_FLOAT
    }
  }
}
node {
  name: "3/0/0/1/conv2d_4/bias/Read/ReadVariableOp"
  op: "ReadVariableOp"
  input: "3/0/0/1/conv2d_4/bias"
  attr {
    key: "dtype"
    value {
      type: DT_FLOAT
    }
  }
}
node {
  name: "module/3/0/0/1/conv2d_4/dilation_rate"
  op: "Const"
  attr {
    key: "dtype"
    value {
      type: DT_INT32
    }
  }
  attr {
    key: "value"
    value {
      tensor {
        dtype: DT_INT32
        tensor_shape {
          dim {
            size: 2
          }
        }
        tensor_content: "\001\000\000\000\001\000\000\000"
      }
    }
  }
}
node {
  name: "module/3/0/0/1/conv2d_4/Conv2D/ReadVariableOp"
  op: "ReadVariableOp"
  input: "3/0/0/1/conv2d_4/kernel"
  attr {
    key: "dtype"
    value {
      type: DT_FLOAT
    }
  }
}
node {
  name: "module/3/0/0/1/conv2d_4/Conv2D"
  op: "Conv2D"
  input: "module/3/0/0/1/Relu_3"
  input: "module/3/0/0/1/conv2d_4/Conv2D/ReadVariableOp"
  attr {
    key: "T"
    value {
      type: DT_FLOAT
    }
  }
  attr {
    key: "data_format"
    value {
      s: "NHWC"
    }
  }
  attr {
    key: "dilations"
    value {
      list {
        i: 1
        i: 1
        i: 1
        i: 1
      }
    }
  }
  attr {
    key: "explicit_paddings"
    value {
      list {
      }
    }
  }
  attr {
    key: "padding"
    value {
      s: "SAME"
    }
  }
  attr {
    key: "strides"
    value {
      list {
        i: 1
        i: 1
        i: 1
        i: 1
      }
    }
  }
  attr {
    key: "use_cudnn_on_gpu"
    value {
      b: true
    }
  }
}
node {
  name: "module/3/0/0/1/conv2d_4/BiasAdd/ReadVariableOp"
  op: "ReadVariableOp"
  input: "3/0/0/1/conv2d_4/bias"
  attr {
    key: "dtype"
    value {
      type: DT_FLOAT
    }
  }
}
node {
  name: "module/3/0/0/1/conv2d_4/BiasAdd"
  op: "BiasAdd"
  input: "module/3/0/0/1/conv2d_4/Conv2D"
  input: "module/3/0/0/1/conv2d_4/BiasAdd/ReadVariableOp"
  attr {
    key: "T"
    value {
      type: DT_FLOAT
    }
  }
  attr {
    key: "data_format"
    value {
      s: "NHWC"
    }
  }
}
node {
  name: "module/3/0/0/1/batch_normalization_4/Const"
  op: "Const"
  attr {
    key: "dtype"
    value {
      type: DT_FLOAT
    }
  }
  attr {
    key: "value"
    value {
      tensor {
        dtype: DT_FLOAT
        tensor_shape {
          dim {
            size: 32
          }
        }
        float_val: 1.0
      }
    }
  }
}
node {
  name: "module/3/0/0/1/batch_normalization_4/Const_1"
  op: "Const"
  attr {
    key: "dtype"
    value {
      type: DT_FLOAT
    }
  }
  attr {
    key: "value"
    value {
      tensor {
        dtype: DT_FLOAT
        tensor_shape {
          dim {
            size: 32
          }
        }
        float_val: 0.0
      }
    }
  }
}
node {
  name: "3/0/0/1/batch_normalization_4/moving_mean/Initializer/zeros"
  op: "Const"
  attr {
    key: "_class"
    value {
      list {
        s: "loc:@3/0/0/1/batch_normalization_4/moving_mean"
      }
    }
  }
  attr {
    key: "dtype"
    value {
      type: DT_FLOAT
    }
  }
  attr {
    key: "value"
    value {
      tensor {
        dtype: DT_FLOAT
        tensor_shape {
          dim {
            size: 32
          }
        }
        float_val: 0.0
      }
    }
  }
}
node {
  name: "3/0/0/1/batch_normalization_4/moving_mean"
  op: "VarHandleOp"
  attr {
    key: "_class"
    value {
      list {
        s: "loc:@3/0/0/1/batch_normalization_4/moving_mean"
      }
    }
  }
  attr {
    key: "container"
    value {
      s: ""
    }
  }
  attr {
    key: "dtype"
    value {
      type: DT_FLOAT
    }
  }
  attr {
    key: "shape"
    value {
      shape {
        dim {
          size: 32
        }
      }
    }
  }
  attr {
    key: "shared_name"
    value {
      s: "3/0/0/1/batch_normalization_4/moving_mean"
    }
  }
}
node {
  name: "3/0/0/1/batch_normalization_4/moving_mean/IsInitialized/VarIsInitializedOp"
  op: "VarIsInitializedOp"
  input: "3/0/0/1/batch_normalization_4/moving_mean"
}
node {
  name: "3/0/0/1/batch_normalization_4/moving_mean/Assign"
  op: "AssignVariableOp"
  input: "3/0/0/1/batch_normalization_4/moving_mean"
  input: "3/0/0/1/batch_normalization_4/moving_mean/Initializer/zeros"
  attr {
    key: "dtype"
    value {
      type: DT_FLOAT
    }
  }
}
node {
  name: "3/0/0/1/batch_normalization_4/moving_mean/Read/ReadVariableOp"
  op: "ReadVariableOp"
  input: "3/0/0/1/batch_normalization_4/moving_mean"
  attr {
    key: "dtype"
    value {
      type: DT_FLOAT
    }
  }
}
node {
  name: "3/0/0/1/batch_normalization_4/moving_variance/Initializer/ones"
  op: "Const"
  attr {
    key: "_class"
    value {
      list {
        s: "loc:@3/0/0/1/batch_normalization_4/moving_variance"
      }
    }
  }
  attr {
    key: "dtype"
    value {
      type: DT_FLOAT
    }
  }
  attr {
    key: "value"
    value {
      tensor {
        dtype: DT_FLOAT
        tensor_shape {
          dim {
            size: 32
          }
        }
        float_val: 1.0
      }
    }
  }
}
node {
  name: "3/0/0/1/batch_normalization_4/moving_variance"
  op: "VarHandleOp"
  attr {
    key: "_class"
    value {
      list {
        s: "loc:@3/0/0/1/batch_normalization_4/moving_variance"
      }
    }
  }
  attr {
    key: "container"
    value {
      s: ""
    }
  }
  attr {
    key: "dtype"
    value {
      type: DT_FLOAT
    }
  }
  attr {
    key: "shape"
    value {
      shape {
        dim {
          size: 32
        }
      }
    }
  }
  attr {
    key: "shared_name"
    value {
      s: "3/0/0/1/batch_normalization_4/moving_variance"
    }
  }
}
node {
  name: "3/0/0/1/batch_normalization_4/moving_variance/IsInitialized/VarIsInitializedOp"
  op: "VarIsInitializedOp"
  input: "3/0/0/1/batch_normalization_4/moving_variance"
}
node {
  name: "3/0/0/1/batch_normalization_4/moving_variance/Assign"
  op: "AssignVariableOp"
  input: "3/0/0/1/batch_normalization_4/moving_variance"
  input: "3/0/0/1/batch_normalization_4/moving_variance/Initializer/ones"
  attr {
    key: "dtype"
    value {
      type: DT_FLOAT
    }
  }
}
node {
  name: "3/0/0/1/batch_normalization_4/moving_variance/Read/ReadVariableOp"
  op: "ReadVariableOp"
  input: "3/0/0/1/batch_normalization_4/moving_variance"
  attr {
    key: "dtype"
    value {
      type: DT_FLOAT
    }
  }
}
node {
  name: "module/3/0/0/1/batch_normalization_4/FusedBatchNormV3/ReadVariableOp"
  op: "ReadVariableOp"
  input: "3/0/0/1/batch_normalization_4/moving_mean"
  attr {
    key: "dtype"
    value {
      type: DT_FLOAT
    }
  }
}
node {
  name: "module/3/0/0/1/batch_normalization_4/FusedBatchNormV3/ReadVariableOp_1"
  op: "ReadVariableOp"
  input: "3/0/0/1/batch_normalization_4/moving_variance"
  attr {
    key: "dtype"
    value {
      type: DT_FLOAT
    }
  }
}
node {
  name: "module/3/0/0/1/batch_normalization_4/FusedBatchNormV3"
  op: "FusedBatchNormV3"
  input: "module/3/0/0/1/conv2d_4/BiasAdd"
  input: "module/3/0/0/1/batch_normalization_4/Const"
  input: "module/3/0/0/1/batch_normalization_4/Const_1"
  input: "module/3/0/0/1/batch_normalization_4/FusedBatchNormV3/ReadVariableOp"
  input: "module/3/0/0/1/batch_normalization_4/FusedBatchNormV3/ReadVariableOp_1"
  attr {
    key: "T"
    value {
      type: DT_FLOAT
    }
  }
  attr {
    key: "U"
    value {
      type: DT_FLOAT
    }
  }
  attr {
    key: "data_format"
    value {
      s: "NHWC"
    }
  }
  attr {
    key: "epsilon"
    value {
      f: 0.0010000000474974513
    }
  }
  attr {
    key: "is_training"
    value {
      b: false
    }
  }
}
node {
  name: "module/3/0/0/1/batch_normalization_4/Const_2"
  op: "Const"
  attr {
    key: "dtype"
    value {
      type: DT_FLOAT
    }
  }
  attr {
    key: "value"
    value {
      tensor {
        dtype: DT_FLOAT
        tensor_shape {
        }
        float_val: 0.9900000095367432
      }
    }
  }
}
node {
  name: "module/3/0/0/1/Relu_4"
  op: "Relu"
  input: "module/3/0/0/1/batch_normalization_4/FusedBatchNormV3"
  attr {
    key: "T"
    value {
      type: DT_FLOAT
    }
  }
}
node {
  name: "3/0/0/1/conv2d_5/kernel/Initializer/random_uniform/shape"
  op: "Const"
  attr {
    key: "_class"
    value {
      list {
        s: "loc:@3/0/0/1/conv2d_5/kernel"
      }
    }
  }
  attr {
    key: "dtype"
    value {
      type: DT_INT32
    }
  }
  attr {
    key: "value"
    value {
      tensor {
        dtype: DT_INT32
        tensor_shape {
          dim {
            size: 4
          }
        }
        tensor_content: "\001\000\000\000\001\000\000\000\200\000\000\000 \000\000\000"
      }
    }
  }
}
node {
  name: "3/0/0/1/conv2d_5/kernel/Initializer/random_uniform/min"
  op: "Const"
  attr {
    key: "_class"
    value {
      list {
        s: "loc:@3/0/0/1/conv2d_5/kernel"
      }
    }
  }
  attr {
    key: "dtype"
    value {
      type: DT_FLOAT
    }
  }
  attr {
    key: "value"
    value {
      tensor {
        dtype: DT_FLOAT
        tensor_shape {
        }
        float_val: -0.19364917278289795
      }
    }
  }
}
node {
  name: "3/0/0/1/conv2d_5/kernel/Initializer/random_uniform/max"
  op: "Const"
  attr {
    key: "_class"
    value {
      list {
        s: "loc:@3/0/0/1/conv2d_5/kernel"
      }
    }
  }
  attr {
    key: "dtype"
    value {
      type: DT_FLOAT
    }
  }
  attr {
    key: "value"
    value {
      tensor {
        dtype: DT_FLOAT
        tensor_shape {
        }
        float_val: 0.19364917278289795
      }
    }
  }
}
node {
  name: "3/0/0/1/conv2d_5/kernel/Initializer/random_uniform/RandomUniform"
  op: "RandomUniform"
  input: "3/0/0/1/conv2d_5/kernel/Initializer/random_uniform/shape"
  attr {
    key: "T"
    value {
      type: DT_INT32
    }
  }
  attr {
    key: "_class"
    value {
      list {
        s: "loc:@3/0/0/1/conv2d_5/kernel"
      }
    }
  }
  attr {
    key: "dtype"
    value {
      type: DT_FLOAT
    }
  }
  attr {
    key: "seed"
    value {
      i: 0
    }
  }
  attr {
    key: "seed2"
    value {
      i: 0
    }
  }
}
node {
  name: "3/0/0/1/conv2d_5/kernel/Initializer/random_uniform/sub"
  op: "Sub"
  input: "3/0/0/1/conv2d_5/kernel/Initializer/random_uniform/max"
  input: "3/0/0/1/conv2d_5/kernel/Initializer/random_uniform/min"
  attr {
    key: "T"
    value {
      type: DT_FLOAT
    }
  }
  attr {
    key: "_class"
    value {
      list {
        s: "loc:@3/0/0/1/conv2d_5/kernel"
      }
    }
  }
}
node {
  name: "3/0/0/1/conv2d_5/kernel/Initializer/random_uniform/mul"
  op: "Mul"
  input: "3/0/0/1/conv2d_5/kernel/Initializer/random_uniform/RandomUniform"
  input: "3/0/0/1/conv2d_5/kernel/Initializer/random_uniform/sub"
  attr {
    key: "T"
    value {
      type: DT_FLOAT
    }
  }
  attr {
    key: "_class"
    value {
      list {
        s: "loc:@3/0/0/1/conv2d_5/kernel"
      }
    }
  }
}
node {
  name: "3/0/0/1/conv2d_5/kernel/Initializer/random_uniform"
  op: "Add"
  input: "3/0/0/1/conv2d_5/kernel/Initializer/random_uniform/mul"
  input: "3/0/0/1/conv2d_5/kernel/Initializer/random_uniform/min"
  attr {
    key: "T"
    value {
      type: DT_FLOAT
    }
  }
  attr {
    key: "_class"
    value {
      list {
        s: "loc:@3/0/0/1/conv2d_5/kernel"
      }
    }
  }
}
node {
  name: "3/0/0/1/conv2d_5/kernel"
  op: "VarHandleOp"
  attr {
    key: "_class"
    value {
      list {
        s: "loc:@3/0/0/1/conv2d_5/kernel"
      }
    }
  }
  attr {
    key: "container"
    value {
      s: ""
    }
  }
  attr {
    key: "dtype"
    value {
      type: DT_FLOAT
    }
  }
  attr {
    key: "shape"
    value {
      shape {
        dim {
          size: 1
        }
        dim {
          size: 1
        }
        dim {
          size: 128
        }
        dim {
          size: 32
        }
      }
    }
  }
  attr {
    key: "shared_name"
    value {
      s: "3/0/0/1/conv2d_5/kernel"
    }
  }
}
node {
  name: "3/0/0/1/conv2d_5/kernel/IsInitialized/VarIsInitializedOp"
  op: "VarIsInitializedOp"
  input: "3/0/0/1/conv2d_5/kernel"
}
node {
  name: "3/0/0/1/conv2d_5/kernel/Assign"
  op: "AssignVariableOp"
  input: "3/0/0/1/conv2d_5/kernel"
  input: "3/0/0/1/conv2d_5/kernel/Initializer/random_uniform"
  attr {
    key: "dtype"
    value {
      type: DT_FLOAT
    }
  }
}
node {
  name: "3/0/0/1/conv2d_5/kernel/Read/ReadVariableOp"
  op: "ReadVariableOp"
  input: "3/0/0/1/conv2d_5/kernel"
  attr {
    key: "dtype"
    value {
      type: DT_FLOAT
    }
  }
}
node {
  name: "3/0/0/1/conv2d_5/bias/Initializer/zeros"
  op: "Const"
  attr {
    key: "_class"
    value {
      list {
        s: "loc:@3/0/0/1/conv2d_5/bias"
      }
    }
  }
  attr {
    key: "dtype"
    value {
      type: DT_FLOAT
    }
  }
  attr {
    key: "value"
    value {
      tensor {
        dtype: DT_FLOAT
        tensor_shape {
          dim {
            size: 32
          }
        }
        float_val: 0.0
      }
    }
  }
}
node {
  name: "3/0/0/1/conv2d_5/bias"
  op: "VarHandleOp"
  attr {
    key: "_class"
    value {
      list {
        s: "loc:@3/0/0/1/conv2d_5/bias"
      }
    }
  }
  attr {
    key: "container"
    value {
      s: ""
    }
  }
  attr {
    key: "dtype"
    value {
      type: DT_FLOAT
    }
  }
  attr {
    key: "shape"
    value {
      shape {
        dim {
          size: 32
        }
      }
    }
  }
  attr {
    key: "shared_name"
    value {
      s: "3/0/0/1/conv2d_5/bias"
    }
  }
}
node {
  name: "3/0/0/1/conv2d_5/bias/IsInitialized/VarIsInitializedOp"
  op: "VarIsInitializedOp"
  input: "3/0/0/1/conv2d_5/bias"
}
node {
  name: "3/0/0/1/conv2d_5/bias/Assign"
  op: "AssignVariableOp"
  input: "3/0/0/1/conv2d_5/bias"
  input: "3/0/0/1/conv2d_5/bias/Initializer/zeros"
  attr {
    key: "dtype"
    value {
      type: DT_FLOAT
    }
  }
}
node {
  name: "3/0/0/1/conv2d_5/bias/Read/ReadVariableOp"
  op: "ReadVariableOp"
  input: "3/0/0/1/conv2d_5/bias"
  attr {
    key: "dtype"
    value {
      type: DT_FLOAT
    }
  }
}
node {
  name: "module/3/0/0/1/conv2d_5/dilation_rate"
  op: "Const"
  attr {
    key: "dtype"
    value {
      type: DT_INT32
    }
  }
  attr {
    key: "value"
    value {
      tensor {
        dtype: DT_INT32
        tensor_shape {
          dim {
            size: 2
          }
        }
        tensor_content: "\001\000\000\000\001\000\000\000"
      }
    }
  }
}
node {
  name: "module/3/0/0/1/conv2d_5/Conv2D/ReadVariableOp"
  op: "ReadVariableOp"
  input: "3/0/0/1/conv2d_5/kernel"
  attr {
    key: "dtype"
    value {
      type: DT_FLOAT
    }
  }
}
node {
  name: "module/3/0/0/1/conv2d_5/Conv2D"
  op: "Conv2D"
  input: "module/3/0/0/0/max_pooling2d/MaxPool"
  input: "module/3/0/0/1/conv2d_5/Conv2D/ReadVariableOp"
  attr {
    key: "T"
    value {
      type: DT_FLOAT
    }
  }
  attr {
    key: "data_format"
    value {
      s: "NHWC"
    }
  }
  attr {
    key: "dilations"
    value {
      list {
        i: 1
        i: 1
        i: 1
        i: 1
      }
    }
  }
  attr {
    key: "explicit_paddings"
    value {
      list {
      }
    }
  }
  attr {
    key: "padding"
    value {
      s: "VALID"
    }
  }
  attr {
    key: "strides"
    value {
      list {
        i: 1
        i: 1
        i: 1
        i: 1
      }
    }
  }
  attr {
    key: "use_cudnn_on_gpu"
    value {
      b: true
    }
  }
}
node {
  name: "module/3/0/0/1/conv2d_5/BiasAdd/ReadVariableOp"
  op: "ReadVariableOp"
  input: "3/0/0/1/conv2d_5/bias"
  attr {
    key: "dtype"
    value {
      type: DT_FLOAT
    }
  }
}
node {
  name: "module/3/0/0/1/conv2d_5/BiasAdd"
  op: "BiasAdd"
  input: "module/3/0/0/1/conv2d_5/Conv2D"
  input: "module/3/0/0/1/conv2d_5/BiasAdd/ReadVariableOp"
  attr {
    key: "T"
    value {
      type: DT_FLOAT
    }
  }
  attr {
    key: "data_format"
    value {
      s: "NHWC"
    }
  }
}
node {
  name: "module/3/0/0/1/batch_normalization_5/Const"
  op: "Const"
  attr {
    key: "dtype"
    value {
      type: DT_FLOAT
    }
  }
  attr {
    key: "value"
    value {
      tensor {
        dtype: DT_FLOAT
        tensor_shape {
          dim {
            size: 32
          }
        }
        float_val: 1.0
      }
    }
  }
}
node {
  name: "module/3/0/0/1/batch_normalization_5/Const_1"
  op: "Const"
  attr {
    key: "dtype"
    value {
      type: DT_FLOAT
    }
  }
  attr {
    key: "value"
    value {
      tensor {
        dtype: DT_FLOAT
        tensor_shape {
          dim {
            size: 32
          }
        }
        float_val: 0.0
      }
    }
  }
}
node {
  name: "3/0/0/1/batch_normalization_5/moving_mean/Initializer/zeros"
  op: "Const"
  attr {
    key: "_class"
    value {
      list {
        s: "loc:@3/0/0/1/batch_normalization_5/moving_mean"
      }
    }
  }
  attr {
    key: "dtype"
    value {
      type: DT_FLOAT
    }
  }
  attr {
    key: "value"
    value {
      tensor {
        dtype: DT_FLOAT
        tensor_shape {
          dim {
            size: 32
          }
        }
        float_val: 0.0
      }
    }
  }
}
node {
  name: "3/0/0/1/batch_normalization_5/moving_mean"
  op: "VarHandleOp"
  attr {
    key: "_class"
    value {
      list {
        s: "loc:@3/0/0/1/batch_normalization_5/moving_mean"
      }
    }
  }
  attr {
    key: "container"
    value {
      s: ""
    }
  }
  attr {
    key: "dtype"
    value {
      type: DT_FLOAT
    }
  }
  attr {
    key: "shape"
    value {
      shape {
        dim {
          size: 32
        }
      }
    }
  }
  attr {
    key: "shared_name"
    value {
      s: "3/0/0/1/batch_normalization_5/moving_mean"
    }
  }
}
node {
  name: "3/0/0/1/batch_normalization_5/moving_mean/IsInitialized/VarIsInitializedOp"
  op: "VarIsInitializedOp"
  input: "3/0/0/1/batch_normalization_5/moving_mean"
}
node {
  name: "3/0/0/1/batch_normalization_5/moving_mean/Assign"
  op: "AssignVariableOp"
  input: "3/0/0/1/batch_normalization_5/moving_mean"
  input: "3/0/0/1/batch_normalization_5/moving_mean/Initializer/zeros"
  attr {
    key: "dtype"
    value {
      type: DT_FLOAT
    }
  }
}
node {
  name: "3/0/0/1/batch_normalization_5/moving_mean/Read/ReadVariableOp"
  op: "ReadVariableOp"
  input: "3/0/0/1/batch_normalization_5/moving_mean"
  attr {
    key: "dtype"
    value {
      type: DT_FLOAT
    }
  }
}
node {
  name: "3/0/0/1/batch_normalization_5/moving_variance/Initializer/ones"
  op: "Const"
  attr {
    key: "_class"
    value {
      list {
        s: "loc:@3/0/0/1/batch_normalization_5/moving_variance"
      }
    }
  }
  attr {
    key: "dtype"
    value {
      type: DT_FLOAT
    }
  }
  attr {
    key: "value"
    value {
      tensor {
        dtype: DT_FLOAT
        tensor_shape {
          dim {
            size: 32
          }
        }
        float_val: 1.0
      }
    }
  }
}
node {
  name: "3/0/0/1/batch_normalization_5/moving_variance"
  op: "VarHandleOp"
  attr {
    key: "_class"
    value {
      list {
        s: "loc:@3/0/0/1/batch_normalization_5/moving_variance"
      }
    }
  }
  attr {
    key: "container"
    value {
      s: ""
    }
  }
  attr {
    key: "dtype"
    value {
      type: DT_FLOAT
    }
  }
  attr {
    key: "shape"
    value {
      shape {
        dim {
          size: 32
        }
      }
    }
  }
  attr {
    key: "shared_name"
    value {
      s: "3/0/0/1/batch_normalization_5/moving_variance"
    }
  }
}
node {
  name: "3/0/0/1/batch_normalization_5/moving_variance/IsInitialized/VarIsInitializedOp"
  op: "VarIsInitializedOp"
  input: "3/0/0/1/batch_normalization_5/moving_variance"
}
node {
  name: "3/0/0/1/batch_normalization_5/moving_variance/Assign"
  op: "AssignVariableOp"
  input: "3/0/0/1/batch_normalization_5/moving_variance"
  input: "3/0/0/1/batch_normalization_5/moving_variance/Initializer/ones"
  attr {
    key: "dtype"
    value {
      type: DT_FLOAT
    }
  }
}
node {
  name: "3/0/0/1/batch_normalization_5/moving_variance/Read/ReadVariableOp"
  op: "ReadVariableOp"
  input: "3/0/0/1/batch_normalization_5/moving_variance"
  attr {
    key: "dtype"
    value {
      type: DT_FLOAT
    }
  }
}
node {
  name: "module/3/0/0/1/batch_normalization_5/FusedBatchNormV3/ReadVariableOp"
  op: "ReadVariableOp"
  input: "3/0/0/1/batch_normalization_5/moving_mean"
  attr {
    key: "dtype"
    value {
      type: DT_FLOAT
    }
  }
}
node {
  name: "module/3/0/0/1/batch_normalization_5/FusedBatchNormV3/ReadVariableOp_1"
  op: "ReadVariableOp"
  input: "3/0/0/1/batch_normalization_5/moving_variance"
  attr {
    key: "dtype"
    value {
      type: DT_FLOAT
    }
  }
}
node {
  name: "module/3/0/0/1/batch_normalization_5/FusedBatchNormV3"
  op: "FusedBatchNormV3"
  input: "module/3/0/0/1/conv2d_5/BiasAdd"
  input: "module/3/0/0/1/batch_normalization_5/Const"
  input: "module/3/0/0/1/batch_normalization_5/Const_1"
  input: "module/3/0/0/1/batch_normalization_5/FusedBatchNormV3/ReadVariableOp"
  input: "module/3/0/0/1/batch_normalization_5/FusedBatchNormV3/ReadVariableOp_1"
  attr {
    key: "T"
    value {
      type: DT_FLOAT
    }
  }
  attr {
    key: "U"
    value {
      type: DT_FLOAT
    }
  }
  attr {
    key: "data_format"
    value {
      s: "NHWC"
    }
  }
  attr {
    key: "epsilon"
    value {
      f: 0.0010000000474974513
    }
  }
  attr {
    key: "is_training"
    value {
      b: false
    }
  }
}
node {
  name: "module/3/0/0/1/batch_normalization_5/Const_2"
  op: "Const"
  attr {
    key: "dtype"
    value {
      type: DT_FLOAT
    }
  }
  attr {
    key: "value"
    value {
      tensor {
        dtype: DT_FLOAT
        tensor_shape {
        }
        float_val: 0.9900000095367432
      }
    }
  }
}
node {
  name: "module/3/0/0/1/Relu_5"
  op: "Relu"
  input: "module/3/0/0/1/batch_normalization_5/FusedBatchNormV3"
  attr {
    key: "T"
    value {
      type: DT_FLOAT
    }
  }
}
node {
  name: "3/0/0/1/conv2d_6/kernel/Initializer/random_uniform/shape"
  op: "Const"
  attr {
    key: "_class"
    value {
      list {
        s: "loc:@3/0/0/1/conv2d_6/kernel"
      }
    }
  }
  attr {
    key: "dtype"
    value {
      type: DT_INT32
    }
  }
  attr {
    key: "value"
    value {
      tensor {
        dtype: DT_INT32
        tensor_shape {
          dim {
            size: 4
          }
        }
        tensor_content: "\007\000\000\000\007\000\000\000 \000\000\000 \000\000\000"
      }
    }
  }
}
node {
  name: "3/0/0/1/conv2d_6/kernel/Initializer/random_uniform/min"
  op: "Const"
  attr {
    key: "_class"
    value {
      list {
        s: "loc:@3/0/0/1/conv2d_6/kernel"
      }
    }
  }
  attr {
    key: "dtype"
    value {
      type: DT_FLOAT
    }
  }
  attr {
    key: "value"
    value {
      tensor {
        dtype: DT_FLOAT
        tensor_shape {
        }
        float_val: -0.0437408871948719
      }
    }
  }
}
node {
  name: "3/0/0/1/conv2d_6/kernel/Initializer/random_uniform/max"
  op: "Const"
  attr {
    key: "_class"
    value {
      list {
        s: "loc:@3/0/0/1/conv2d_6/kernel"
      }
    }
  }
  attr {
    key: "dtype"
    value {
      type: DT_FLOAT
    }
  }
  attr {
    key: "value"
    value {
      tensor {
        dtype: DT_FLOAT
        tensor_shape {
        }
        float_val: 0.0437408871948719
      }
    }
  }
}
node {
  name: "3/0/0/1/conv2d_6/kernel/Initializer/random_uniform/RandomUniform"
  op: "RandomUniform"
  input: "3/0/0/1/conv2d_6/kernel/Initializer/random_uniform/shape"
  attr {
    key: "T"
    value {
      type: DT_INT32
    }
  }
  attr {
    key: "_class"
    value {
      list {
        s: "loc:@3/0/0/1/conv2d_6/kernel"
      }
    }
  }
  attr {
    key: "dtype"
    value {
      type: DT_FLOAT
    }
  }
  attr {
    key: "seed"
    value {
      i: 0
    }
  }
  attr {
    key: "seed2"
    value {
      i: 0
    }
  }
}
node {
  name: "3/0/0/1/conv2d_6/kernel/Initializer/random_uniform/sub"
  op: "Sub"
  input: "3/0/0/1/conv2d_6/kernel/Initializer/random_uniform/max"
  input: "3/0/0/1/conv2d_6/kernel/Initializer/random_uniform/min"
  attr {
    key: "T"
    value {
      type: DT_FLOAT
    }
  }
  attr {
    key: "_class"
    value {
      list {
        s: "loc:@3/0/0/1/conv2d_6/kernel"
      }
    }
  }
}
node {
  name: "3/0/0/1/conv2d_6/kernel/Initializer/random_uniform/mul"
  op: "Mul"
  input: "3/0/0/1/conv2d_6/kernel/Initializer/random_uniform/RandomUniform"
  input: "3/0/0/1/conv2d_6/kernel/Initializer/random_uniform/sub"
  attr {
    key: "T"
    value {
      type: DT_FLOAT
    }
  }
  attr {
    key: "_class"
    value {
      list {
        s: "loc:@3/0/0/1/conv2d_6/kernel"
      }
    }
  }
}
node {
  name: "3/0/0/1/conv2d_6/kernel/Initializer/random_uniform"
  op: "Add"
  input: "3/0/0/1/conv2d_6/kernel/Initializer/random_uniform/mul"
  input: "3/0/0/1/conv2d_6/kernel/Initializer/random_uniform/min"
  attr {
    key: "T"
    value {
      type: DT_FLOAT
    }
  }
  attr {
    key: "_class"
    value {
      list {
        s: "loc:@3/0/0/1/conv2d_6/kernel"
      }
    }
  }
}
node {
  name: "3/0/0/1/conv2d_6/kernel"
  op: "VarHandleOp"
  attr {
    key: "_class"
    value {
      list {
        s: "loc:@3/0/0/1/conv2d_6/kernel"
      }
    }
  }
  attr {
    key: "container"
    value {
      s: ""
    }
  }
  attr {
    key: "dtype"
    value {
      type: DT_FLOAT
    }
  }
  attr {
    key: "shape"
    value {
      shape {
        dim {
          size: 7
        }
        dim {
          size: 7
        }
        dim {
          size: 32
        }
        dim {
          size: 32
        }
      }
    }
  }
  attr {
    key: "shared_name"
    value {
      s: "3/0/0/1/conv2d_6/kernel"
    }
  }
}
node {
  name: "3/0/0/1/conv2d_6/kernel/IsInitialized/VarIsInitializedOp"
  op: "VarIsInitializedOp"
  input: "3/0/0/1/conv2d_6/kernel"
}
node {
  name: "3/0/0/1/conv2d_6/kernel/Assign"
  op: "AssignVariableOp"
  input: "3/0/0/1/conv2d_6/kernel"
  input: "3/0/0/1/conv2d_6/kernel/Initializer/random_uniform"
  attr {
    key: "dtype"
    value {
      type: DT_FLOAT
    }
  }
}
node {
  name: "3/0/0/1/conv2d_6/kernel/Read/ReadVariableOp"
  op: "ReadVariableOp"
  input: "3/0/0/1/conv2d_6/kernel"
  attr {
    key: "dtype"
    value {
      type: DT_FLOAT
    }
  }
}
node {
  name: "3/0/0/1/conv2d_6/bias/Initializer/zeros"
  op: "Const"
  attr {
    key: "_class"
    value {
      list {
        s: "loc:@3/0/0/1/conv2d_6/bias"
      }
    }
  }
  attr {
    key: "dtype"
    value {
      type: DT_FLOAT
    }
  }
  attr {
    key: "value"
    value {
      tensor {
        dtype: DT_FLOAT
        tensor_shape {
          dim {
            size: 32
          }
        }
        float_val: 0.0
      }
    }
  }
}
node {
  name: "3/0/0/1/conv2d_6/bias"
  op: "VarHandleOp"
  attr {
    key: "_class"
    value {
      list {
        s: "loc:@3/0/0/1/conv2d_6/bias"
      }
    }
  }
  attr {
    key: "container"
    value {
      s: ""
    }
  }
  attr {
    key: "dtype"
    value {
      type: DT_FLOAT
    }
  }
  attr {
    key: "shape"
    value {
      shape {
        dim {
          size: 32
        }
      }
    }
  }
  attr {
    key: "shared_name"
    value {
      s: "3/0/0/1/conv2d_6/bias"
    }
  }
}
node {
  name: "3/0/0/1/conv2d_6/bias/IsInitialized/VarIsInitializedOp"
  op: "VarIsInitializedOp"
  input: "3/0/0/1/conv2d_6/bias"
}
node {
  name: "3/0/0/1/conv2d_6/bias/Assign"
  op: "AssignVariableOp"
  input: "3/0/0/1/conv2d_6/bias"
  input: "3/0/0/1/conv2d_6/bias/Initializer/zeros"
  attr {
    key: "dtype"
    value {
      type: DT_FLOAT
    }
  }
}
node {
  name: "3/0/0/1/conv2d_6/bias/Read/ReadVariableOp"
  op: "ReadVariableOp"
  input: "3/0/0/1/conv2d_6/bias"
  attr {
    key: "dtype"
    value {
      type: DT_FLOAT
    }
  }
}
node {
  name: "module/3/0/0/1/conv2d_6/dilation_rate"
  op: "Const"
  attr {
    key: "dtype"
    value {
      type: DT_INT32
    }
  }
  attr {
    key: "value"
    value {
      tensor {
        dtype: DT_INT32
        tensor_shape {
          dim {
            size: 2
          }
        }
        tensor_content: "\001\000\000\000\001\000\000\000"
      }
    }
  }
}
node {
  name: "module/3/0/0/1/conv2d_6/Conv2D/ReadVariableOp"
  op: "ReadVariableOp"
  input: "3/0/0/1/conv2d_6/kernel"
  attr {
    key: "dtype"
    value {
      type: DT_FLOAT
    }
  }
}
node {
  name: "module/3/0/0/1/conv2d_6/Conv2D"
  op: "Conv2D"
  input: "module/3/0/0/1/Relu_5"
  input: "module/3/0/0/1/conv2d_6/Conv2D/ReadVariableOp"
  attr {
    key: "T"
    value {
      type: DT_FLOAT
    }
  }
  attr {
    key: "data_format"
    value {
      s: "NHWC"
    }
  }
  attr {
    key: "dilations"
    value {
      list {
        i: 1
        i: 1
        i: 1
        i: 1
      }
    }
  }
  attr {
    key: "explicit_paddings"
    value {
      list {
      }
    }
  }
  attr {
    key: "padding"
    value {
      s: "SAME"
    }
  }
  attr {
    key: "strides"
    value {
      list {
        i: 1
        i: 1
        i: 1
        i: 1
      }
    }
  }
  attr {
    key: "use_cudnn_on_gpu"
    value {
      b: true
    }
  }
}
node {
  name: "module/3/0/0/1/conv2d_6/BiasAdd/ReadVariableOp"
  op: "ReadVariableOp"
  input: "3/0/0/1/conv2d_6/bias"
  attr {
    key: "dtype"
    value {
      type: DT_FLOAT
    }
  }
}
node {
  name: "module/3/0/0/1/conv2d_6/BiasAdd"
  op: "BiasAdd"
  input: "module/3/0/0/1/conv2d_6/Conv2D"
  input: "module/3/0/0/1/conv2d_6/BiasAdd/ReadVariableOp"
  attr {
    key: "T"
    value {
      type: DT_FLOAT
    }
  }
  attr {
    key: "data_format"
    value {
      s: "NHWC"
    }
  }
}
node {
  name: "module/3/0/0/1/batch_normalization_6/Const"
  op: "Const"
  attr {
    key: "dtype"
    value {
      type: DT_FLOAT
    }
  }
  attr {
    key: "value"
    value {
      tensor {
        dtype: DT_FLOAT
        tensor_shape {
          dim {
            size: 32
          }
        }
        float_val: 1.0
      }
    }
  }
}
node {
  name: "module/3/0/0/1/batch_normalization_6/Const_1"
  op: "Const"
  attr {
    key: "dtype"
    value {
      type: DT_FLOAT
    }
  }
  attr {
    key: "value"
    value {
      tensor {
        dtype: DT_FLOAT
        tensor_shape {
          dim {
            size: 32
          }
        }
        float_val: 0.0
      }
    }
  }
}
node {
  name: "3/0/0/1/batch_normalization_6/moving_mean/Initializer/zeros"
  op: "Const"
  attr {
    key: "_class"
    value {
      list {
        s: "loc:@3/0/0/1/batch_normalization_6/moving_mean"
      }
    }
  }
  attr {
    key: "dtype"
    value {
      type: DT_FLOAT
    }
  }
  attr {
    key: "value"
    value {
      tensor {
        dtype: DT_FLOAT
        tensor_shape {
          dim {
            size: 32
          }
        }
        float_val: 0.0
      }
    }
  }
}
node {
  name: "3/0/0/1/batch_normalization_6/moving_mean"
  op: "VarHandleOp"
  attr {
    key: "_class"
    value {
      list {
        s: "loc:@3/0/0/1/batch_normalization_6/moving_mean"
      }
    }
  }
  attr {
    key: "container"
    value {
      s: ""
    }
  }
  attr {
    key: "dtype"
    value {
      type: DT_FLOAT
    }
  }
  attr {
    key: "shape"
    value {
      shape {
        dim {
          size: 32
        }
      }
    }
  }
  attr {
    key: "shared_name"
    value {
      s: "3/0/0/1/batch_normalization_6/moving_mean"
    }
  }
}
node {
  name: "3/0/0/1/batch_normalization_6/moving_mean/IsInitialized/VarIsInitializedOp"
  op: "VarIsInitializedOp"
  input: "3/0/0/1/batch_normalization_6/moving_mean"
}
node {
  name: "3/0/0/1/batch_normalization_6/moving_mean/Assign"
  op: "AssignVariableOp"
  input: "3/0/0/1/batch_normalization_6/moving_mean"
  input: "3/0/0/1/batch_normalization_6/moving_mean/Initializer/zeros"
  attr {
    key: "dtype"
    value {
      type: DT_FLOAT
    }
  }
}
node {
  name: "3/0/0/1/batch_normalization_6/moving_mean/Read/ReadVariableOp"
  op: "ReadVariableOp"
  input: "3/0/0/1/batch_normalization_6/moving_mean"
  attr {
    key: "dtype"
    value {
      type: DT_FLOAT
    }
  }
}
node {
  name: "3/0/0/1/batch_normalization_6/moving_variance/Initializer/ones"
  op: "Const"
  attr {
    key: "_class"
    value {
      list {
        s: "loc:@3/0/0/1/batch_normalization_6/moving_variance"
      }
    }
  }
  attr {
    key: "dtype"
    value {
      type: DT_FLOAT
    }
  }
  attr {
    key: "value"
    value {
      tensor {
        dtype: DT_FLOAT
        tensor_shape {
          dim {
            size: 32
          }
        }
        float_val: 1.0
      }
    }
  }
}
node {
  name: "3/0/0/1/batch_normalization_6/moving_variance"
  op: "VarHandleOp"
  attr {
    key: "_class"
    value {
      list {
        s: "loc:@3/0/0/1/batch_normalization_6/moving_variance"
      }
    }
  }
  attr {
    key: "container"
    value {
      s: ""
    }
  }
  attr {
    key: "dtype"
    value {
      type: DT_FLOAT
    }
  }
  attr {
    key: "shape"
    value {
      shape {
        dim {
          size: 32
        }
      }
    }
  }
  attr {
    key: "shared_name"
    value {
      s: "3/0/0/1/batch_normalization_6/moving_variance"
    }
  }
}
node {
  name: "3/0/0/1/batch_normalization_6/moving_variance/IsInitialized/VarIsInitializedOp"
  op: "VarIsInitializedOp"
  input: "3/0/0/1/batch_normalization_6/moving_variance"
}
node {
  name: "3/0/0/1/batch_normalization_6/moving_variance/Assign"
  op: "AssignVariableOp"
  input: "3/0/0/1/batch_normalization_6/moving_variance"
  input: "3/0/0/1/batch_normalization_6/moving_variance/Initializer/ones"
  attr {
    key: "dtype"
    value {
      type: DT_FLOAT
    }
  }
}
node {
  name: "3/0/0/1/batch_normalization_6/moving_variance/Read/ReadVariableOp"
  op: "ReadVariableOp"
  input: "3/0/0/1/batch_normalization_6/moving_variance"
  attr {
    key: "dtype"
    value {
      type: DT_FLOAT
    }
  }
}
node {
  name: "module/3/0/0/1/batch_normalization_6/FusedBatchNormV3/ReadVariableOp"
  op: "ReadVariableOp"
  input: "3/0/0/1/batch_normalization_6/moving_mean"
  attr {
    key: "dtype"
    value {
      type: DT_FLOAT
    }
  }
}
node {
  name: "module/3/0/0/1/batch_normalization_6/FusedBatchNormV3/ReadVariableOp_1"
  op: "ReadVariableOp"
  input: "3/0/0/1/batch_normalization_6/moving_variance"
  attr {
    key: "dtype"
    value {
      type: DT_FLOAT
    }
  }
}
node {
  name: "module/3/0/0/1/batch_normalization_6/FusedBatchNormV3"
  op: "FusedBatchNormV3"
  input: "module/3/0/0/1/conv2d_6/BiasAdd"
  input: "module/3/0/0/1/batch_normalization_6/Const"
  input: "module/3/0/0/1/batch_normalization_6/Const_1"
  input: "module/3/0/0/1/batch_normalization_6/FusedBatchNormV3/ReadVariableOp"
  input: "module/3/0/0/1/batch_normalization_6/FusedBatchNormV3/ReadVariableOp_1"
  attr {
    key: "T"
    value {
      type: DT_FLOAT
    }
  }
  attr {
    key: "U"
    value {
      type: DT_FLOAT
    }
  }
  attr {
    key: "data_format"
    value {
      s: "NHWC"
    }
  }
  attr {
    key: "epsilon"
    value {
      f: 0.0010000000474974513
    }
  }
  attr {
    key: "is_training"
    value {
      b: false
    }
  }
}
node {
  name: "module/3/0/0/1/batch_normalization_6/Const_2"
  op: "Const"
  attr {
    key: "dtype"
    value {
      type: DT_FLOAT
    }
  }
  attr {
    key: "value"
    value {
      tensor {
        dtype: DT_FLOAT
        tensor_shape {
        }
        float_val: 0.9900000095367432
      }
    }
  }
}
node {
  name: "module/3/0/0/1/Relu_6"
  op: "Relu"
  input: "module/3/0/0/1/batch_normalization_6/FusedBatchNormV3"
  attr {
    key: "T"
    value {
      type: DT_FLOAT
    }
  }
}
node {
  name: "module/3/0/0/1/concat/axis"
  op: "Const"
  attr {
    key: "dtype"
    value {
      type: DT_INT32
    }
  }
  attr {
    key: "value"
    value {
      tensor {
        dtype: DT_INT32
        tensor_shape {
        }
        int_val: 3
      }
    }
  }
}
node {
  name: "module/3/0/0/1/concat"
  op: "ConcatV2"
  input: "module/3/0/0/1/Relu"
  input: "module/3/0/0/1/Relu_2"
  input: "module/3/0/0/1/Relu_4"
  input: "module/3/0/0/1/Relu_6"
  input: "module/3/0/0/1/concat/axis"
  attr {
    key: "N"
    value {
      i: 4
    }
  }
  attr {
    key: "T"
    value {
      type: DT_FLOAT
    }
  }
  attr {
    key: "Tidx"
    value {
      type: DT_INT32
    }
  }
}
node {
  name: "3/0/0/2/conv2d/kernel/Initializer/random_uniform/shape"
  op: "Const"
  attr {
    key: "_class"
    value {
      list {
        s: "loc:@3/0/0/2/conv2d/kernel"
      }
    }
  }
  attr {
    key: "dtype"
    value {
      type: DT_INT32
    }
  }
  attr {
    key: "value"
    value {
      tensor {
        dtype: DT_INT32
        tensor_shape {
          dim {
            size: 4
          }
        }
        tensor_content: "\001\000\000\000\001\000\000\000\200\000\000\000 \000\000\000"
      }
    }
  }
}
node {
  name: "3/0/0/2/conv2d/kernel/Initializer/random_uniform/min"
  op: "Const"
  attr {
    key: "_class"
    value {
      list {
        s: "loc:@3/0/0/2/conv2d/kernel"
      }
    }
  }
  attr {
    key: "dtype"
    value {
      type: DT_FLOAT
    }
  }
  attr {
    key: "value"
    value {
      tensor {
        dtype: DT_FLOAT
        tensor_shape {
        }
        float_val: -0.19364917278289795
      }
    }
  }
}
node {
  name: "3/0/0/2/conv2d/kernel/Initializer/random_uniform/max"
  op: "Const"
  attr {
    key: "_class"
    value {
      list {
        s: "loc:@3/0/0/2/conv2d/kernel"
      }
    }
  }
  attr {
    key: "dtype"
    value {
      type: DT_FLOAT
    }
  }
  attr {
    key: "value"
    value {
      tensor {
        dtype: DT_FLOAT
        tensor_shape {
        }
        float_val: 0.19364917278289795
      }
    }
  }
}
node {
  name: "3/0/0/2/conv2d/kernel/Initializer/random_uniform/RandomUniform"
  op: "RandomUniform"
  input: "3/0/0/2/conv2d/kernel/Initializer/random_uniform/shape"
  attr {
    key: "T"
    value {
      type: DT_INT32
    }
  }
  attr {
    key: "_class"
    value {
      list {
        s: "loc:@3/0/0/2/conv2d/kernel"
      }
    }
  }
  attr {
    key: "dtype"
    value {
      type: DT_FLOAT
    }
  }
  attr {
    key: "seed"
    value {
      i: 0
    }
  }
  attr {
    key: "seed2"
    value {
      i: 0
    }
  }
}
node {
  name: "3/0/0/2/conv2d/kernel/Initializer/random_uniform/sub"
  op: "Sub"
  input: "3/0/0/2/conv2d/kernel/Initializer/random_uniform/max"
  input: "3/0/0/2/conv2d/kernel/Initializer/random_uniform/min"
  attr {
    key: "T"
    value {
      type: DT_FLOAT
    }
  }
  attr {
    key: "_class"
    value {
      list {
        s: "loc:@3/0/0/2/conv2d/kernel"
      }
    }
  }
}
node {
  name: "3/0/0/2/conv2d/kernel/Initializer/random_uniform/mul"
  op: "Mul"
  input: "3/0/0/2/conv2d/kernel/Initializer/random_uniform/RandomUniform"
  input: "3/0/0/2/conv2d/kernel/Initializer/random_uniform/sub"
  attr {
    key: "T"
    value {
      type: DT_FLOAT
    }
  }
  attr {
    key: "_class"
    value {
      list {
        s: "loc:@3/0/0/2/conv2d/kernel"
      }
    }
  }
}
node {
  name: "3/0/0/2/conv2d/kernel/Initializer/random_uniform"
  op: "Add"
  input: "3/0/0/2/conv2d/kernel/Initializer/random_uniform/mul"
  input: "3/0/0/2/conv2d/kernel/Initializer/random_uniform/min"
  attr {
    key: "T"
    value {
      type: DT_FLOAT
    }
  }
  attr {
    key: "_class"
    value {
      list {
        s: "loc:@3/0/0/2/conv2d/kernel"
      }
    }
  }
}
node {
  name: "3/0/0/2/conv2d/kernel"
  op: "VarHandleOp"
  attr {
    key: "_class"
    value {
      list {
        s: "loc:@3/0/0/2/conv2d/kernel"
      }
    }
  }
  attr {
    key: "container"
    value {
      s: ""
    }
  }
  attr {
    key: "dtype"
    value {
      type: DT_FLOAT
    }
  }
  attr {
    key: "shape"
    value {
      shape {
        dim {
          size: 1
        }
        dim {
          size: 1
        }
        dim {
          size: 128
        }
        dim {
          size: 32
        }
      }
    }
  }
  attr {
    key: "shared_name"
    value {
      s: "3/0/0/2/conv2d/kernel"
    }
  }
}
node {
  name: "3/0/0/2/conv2d/kernel/IsInitialized/VarIsInitializedOp"
  op: "VarIsInitializedOp"
  input: "3/0/0/2/conv2d/kernel"
}
node {
  name: "3/0/0/2/conv2d/kernel/Assign"
  op: "AssignVariableOp"
  input: "3/0/0/2/conv2d/kernel"
  input: "3/0/0/2/conv2d/kernel/Initializer/random_uniform"
  attr {
    key: "dtype"
    value {
      type: DT_FLOAT
    }
  }
}
node {
  name: "3/0/0/2/conv2d/kernel/Read/ReadVariableOp"
  op: "ReadVariableOp"
  input: "3/0/0/2/conv2d/kernel"
  attr {
    key: "dtype"
    value {
      type: DT_FLOAT
    }
  }
}
node {
  name: "3/0/0/2/conv2d/bias/Initializer/zeros"
  op: "Const"
  attr {
    key: "_class"
    value {
      list {
        s: "loc:@3/0/0/2/conv2d/bias"
      }
    }
  }
  attr {
    key: "dtype"
    value {
      type: DT_FLOAT
    }
  }
  attr {
    key: "value"
    value {
      tensor {
        dtype: DT_FLOAT
        tensor_shape {
          dim {
            size: 32
          }
        }
        float_val: 0.0
      }
    }
  }
}
node {
  name: "3/0/0/2/conv2d/bias"
  op: "VarHandleOp"
  attr {
    key: "_class"
    value {
      list {
        s: "loc:@3/0/0/2/conv2d/bias"
      }
    }
  }
  attr {
    key: "container"
    value {
      s: ""
    }
  }
  attr {
    key: "dtype"
    value {
      type: DT_FLOAT
    }
  }
  attr {
    key: "shape"
    value {
      shape {
        dim {
          size: 32
        }
      }
    }
  }
  attr {
    key: "shared_name"
    value {
      s: "3/0/0/2/conv2d/bias"
    }
  }
}
node {
  name: "3/0/0/2/conv2d/bias/IsInitialized/VarIsInitializedOp"
  op: "VarIsInitializedOp"
  input: "3/0/0/2/conv2d/bias"
}
node {
  name: "3/0/0/2/conv2d/bias/Assign"
  op: "AssignVariableOp"
  input: "3/0/0/2/conv2d/bias"
  input: "3/0/0/2/conv2d/bias/Initializer/zeros"
  attr {
    key: "dtype"
    value {
      type: DT_FLOAT
    }
  }
}
node {
  name: "3/0/0/2/conv2d/bias/Read/ReadVariableOp"
  op: "ReadVariableOp"
  input: "3/0/0/2/conv2d/bias"
  attr {
    key: "dtype"
    value {
      type: DT_FLOAT
    }
  }
}
node {
  name: "module/3/0/0/2/conv2d/dilation_rate"
  op: "Const"
  attr {
    key: "dtype"
    value {
      type: DT_INT32
    }
  }
  attr {
    key: "value"
    value {
      tensor {
        dtype: DT_INT32
        tensor_shape {
          dim {
            size: 2
          }
        }
        tensor_content: "\001\000\000\000\001\000\000\000"
      }
    }
  }
}
node {
  name: "module/3/0/0/2/conv2d/Conv2D/ReadVariableOp"
  op: "ReadVariableOp"
  input: "3/0/0/2/conv2d/kernel"
  attr {
    key: "dtype"
    value {
      type: DT_FLOAT
    }
  }
}
node {
  name: "module/3/0/0/2/conv2d/Conv2D"
  op: "Conv2D"
  input: "module/3/0/0/1/concat"
  input: "module/3/0/0/2/conv2d/Conv2D/ReadVariableOp"
  attr {
    key: "T"
    value {
      type: DT_FLOAT
    }
  }
  attr {
    key: "data_format"
    value {
      s: "NHWC"
    }
  }
  attr {
    key: "dilations"
    value {
      list {
        i: 1
        i: 1
        i: 1
        i: 1
      }
    }
  }
  attr {
    key: "explicit_paddings"
    value {
      list {
      }
    }
  }
  attr {
    key: "padding"
    value {
      s: "VALID"
    }
  }
  attr {
    key: "strides"
    value {
      list {
        i: 1
        i: 1
        i: 1
        i: 1
      }
    }
  }
  attr {
    key: "use_cudnn_on_gpu"
    value {
      b: true
    }
  }
}
node {
  name: "module/3/0/0/2/conv2d/BiasAdd/ReadVariableOp"
  op: "ReadVariableOp"
  input: "3/0/0/2/conv2d/bias"
  attr {
    key: "dtype"
    value {
      type: DT_FLOAT
    }
  }
}
node {
  name: "module/3/0/0/2/conv2d/BiasAdd"
  op: "BiasAdd"
  input: "module/3/0/0/2/conv2d/Conv2D"
  input: "module/3/0/0/2/conv2d/BiasAdd/ReadVariableOp"
  attr {
    key: "T"
    value {
      type: DT_FLOAT
    }
  }
  attr {
    key: "data_format"
    value {
      s: "NHWC"
    }
  }
}
node {
  name: "module/3/0/0/2/batch_normalization/Const"
  op: "Const"
  attr {
    key: "dtype"
    value {
      type: DT_FLOAT
    }
  }
  attr {
    key: "value"
    value {
      tensor {
        dtype: DT_FLOAT
        tensor_shape {
          dim {
            size: 32
          }
        }
        float_val: 1.0
      }
    }
  }
}
node {
  name: "module/3/0/0/2/batch_normalization/Const_1"
  op: "Const"
  attr {
    key: "dtype"
    value {
      type: DT_FLOAT
    }
  }
  attr {
    key: "value"
    value {
      tensor {
        dtype: DT_FLOAT
        tensor_shape {
          dim {
            size: 32
          }
        }
        float_val: 0.0
      }
    }
  }
}
node {
  name: "3/0/0/2/batch_normalization/moving_mean/Initializer/zeros"
  op: "Const"
  attr {
    key: "_class"
    value {
      list {
        s: "loc:@3/0/0/2/batch_normalization/moving_mean"
      }
    }
  }
  attr {
    key: "dtype"
    value {
      type: DT_FLOAT
    }
  }
  attr {
    key: "value"
    value {
      tensor {
        dtype: DT_FLOAT
        tensor_shape {
          dim {
            size: 32
          }
        }
        float_val: 0.0
      }
    }
  }
}
node {
  name: "3/0/0/2/batch_normalization/moving_mean"
  op: "VarHandleOp"
  attr {
    key: "_class"
    value {
      list {
        s: "loc:@3/0/0/2/batch_normalization/moving_mean"
      }
    }
  }
  attr {
    key: "container"
    value {
      s: ""
    }
  }
  attr {
    key: "dtype"
    value {
      type: DT_FLOAT
    }
  }
  attr {
    key: "shape"
    value {
      shape {
        dim {
          size: 32
        }
      }
    }
  }
  attr {
    key: "shared_name"
    value {
      s: "3/0/0/2/batch_normalization/moving_mean"
    }
  }
}
node {
  name: "3/0/0/2/batch_normalization/moving_mean/IsInitialized/VarIsInitializedOp"
  op: "VarIsInitializedOp"
  input: "3/0/0/2/batch_normalization/moving_mean"
}
node {
  name: "3/0/0/2/batch_normalization/moving_mean/Assign"
  op: "AssignVariableOp"
  input: "3/0/0/2/batch_normalization/moving_mean"
  input: "3/0/0/2/batch_normalization/moving_mean/Initializer/zeros"
  attr {
    key: "dtype"
    value {
      type: DT_FLOAT
    }
  }
}
node {
  name: "3/0/0/2/batch_normalization/moving_mean/Read/ReadVariableOp"
  op: "ReadVariableOp"
  input: "3/0/0/2/batch_normalization/moving_mean"
  attr {
    key: "dtype"
    value {
      type: DT_FLOAT
    }
  }
}
node {
  name: "3/0/0/2/batch_normalization/moving_variance/Initializer/ones"
  op: "Const"
  attr {
    key: "_class"
    value {
      list {
        s: "loc:@3/0/0/2/batch_normalization/moving_variance"
      }
    }
  }
  attr {
    key: "dtype"
    value {
      type: DT_FLOAT
    }
  }
  attr {
    key: "value"
    value {
      tensor {
        dtype: DT_FLOAT
        tensor_shape {
          dim {
            size: 32
          }
        }
        float_val: 1.0
      }
    }
  }
}
node {
  name: "3/0/0/2/batch_normalization/moving_variance"
  op: "VarHandleOp"
  attr {
    key: "_class"
    value {
      list {
        s: "loc:@3/0/0/2/batch_normalization/moving_variance"
      }
    }
  }
  attr {
    key: "container"
    value {
      s: ""
    }
  }
  attr {
    key: "dtype"
    value {
      type: DT_FLOAT
    }
  }
  attr {
    key: "shape"
    value {
      shape {
        dim {
          size: 32
        }
      }
    }
  }
  attr {
    key: "shared_name"
    value {
      s: "3/0/0/2/batch_normalization/moving_variance"
    }
  }
}
node {
  name: "3/0/0/2/batch_normalization/moving_variance/IsInitialized/VarIsInitializedOp"
  op: "VarIsInitializedOp"
  input: "3/0/0/2/batch_normalization/moving_variance"
}
node {
  name: "3/0/0/2/batch_normalization/moving_variance/Assign"
  op: "AssignVariableOp"
  input: "3/0/0/2/batch_normalization/moving_variance"
  input: "3/0/0/2/batch_normalization/moving_variance/Initializer/ones"
  attr {
    key: "dtype"
    value {
      type: DT_FLOAT
    }
  }
}
node {
  name: "3/0/0/2/batch_normalization/moving_variance/Read/ReadVariableOp"
  op: "ReadVariableOp"
  input: "3/0/0/2/batch_normalization/moving_variance"
  attr {
    key: "dtype"
    value {
      type: DT_FLOAT
    }
  }
}
node {
  name: "module/3/0/0/2/batch_normalization/FusedBatchNormV3/ReadVariableOp"
  op: "ReadVariableOp"
  input: "3/0/0/2/batch_normalization/moving_mean"
  attr {
    key: "dtype"
    value {
      type: DT_FLOAT
    }
  }
}
node {
  name: "module/3/0/0/2/batch_normalization/FusedBatchNormV3/ReadVariableOp_1"
  op: "ReadVariableOp"
  input: "3/0/0/2/batch_normalization/moving_variance"
  attr {
    key: "dtype"
    value {
      type: DT_FLOAT
    }
  }
}
node {
  name: "module/3/0/0/2/batch_normalization/FusedBatchNormV3"
  op: "FusedBatchNormV3"
  input: "module/3/0/0/2/conv2d/BiasAdd"
  input: "module/3/0/0/2/batch_normalization/Const"
  input: "module/3/0/0/2/batch_normalization/Const_1"
  input: "module/3/0/0/2/batch_normalization/FusedBatchNormV3/ReadVariableOp"
  input: "module/3/0/0/2/batch_normalization/FusedBatchNormV3/ReadVariableOp_1"
  attr {
    key: "T"
    value {
      type: DT_FLOAT
    }
  }
  attr {
    key: "U"
    value {
      type: DT_FLOAT
    }
  }
  attr {
    key: "data_format"
    value {
      s: "NHWC"
    }
  }
  attr {
    key: "epsilon"
    value {
      f: 0.0010000000474974513
    }
  }
  attr {
    key: "is_training"
    value {
      b: false
    }
  }
}
node {
  name: "module/3/0/0/2/batch_normalization/Const_2"
  op: "Const"
  attr {
    key: "dtype"
    value {
      type: DT_FLOAT
    }
  }
  attr {
    key: "value"
    value {
      tensor {
        dtype: DT_FLOAT
        tensor_shape {
        }
        float_val: 0.9900000095367432
      }
    }
  }
}
node {
  name: "module/3/0/0/2/Relu"
  op: "Relu"
  input: "module/3/0/0/2/batch_normalization/FusedBatchNormV3"
  attr {
    key: "T"
    value {
      type: DT_FLOAT
    }
  }
}
node {
  name: "3/0/0/2/conv2d_1/kernel/Initializer/random_uniform/shape"
  op: "Const"
  attr {
    key: "_class"
    value {
      list {
        s: "loc:@3/0/0/2/conv2d_1/kernel"
      }
    }
  }
  attr {
    key: "dtype"
    value {
      type: DT_INT32
    }
  }
  attr {
    key: "value"
    value {
      tensor {
        dtype: DT_INT32
        tensor_shape {
          dim {
            size: 4
          }
        }
        tensor_content: "\001\000\000\000\001\000\000\000\200\000\000\000 \000\000\000"
      }
    }
  }
}
node {
  name: "3/0/0/2/conv2d_1/kernel/Initializer/random_uniform/min"
  op: "Const"
  attr {
    key: "_class"
    value {
      list {
        s: "loc:@3/0/0/2/conv2d_1/kernel"
      }
    }
  }
  attr {
    key: "dtype"
    value {
      type: DT_FLOAT
    }
  }
  attr {
    key: "value"
    value {
      tensor {
        dtype: DT_FLOAT
        tensor_shape {
        }
        float_val: -0.19364917278289795
      }
    }
  }
}
node {
  name: "3/0/0/2/conv2d_1/kernel/Initializer/random_uniform/max"
  op: "Const"
  attr {
    key: "_class"
    value {
      list {
        s: "loc:@3/0/0/2/conv2d_1/kernel"
      }
    }
  }
  attr {
    key: "dtype"
    value {
      type: DT_FLOAT
    }
  }
  attr {
    key: "value"
    value {
      tensor {
        dtype: DT_FLOAT
        tensor_shape {
        }
        float_val: 0.19364917278289795
      }
    }
  }
}
node {
  name: "3/0/0/2/conv2d_1/kernel/Initializer/random_uniform/RandomUniform"
  op: "RandomUniform"
  input: "3/0/0/2/conv2d_1/kernel/Initializer/random_uniform/shape"
  attr {
    key: "T"
    value {
      type: DT_INT32
    }
  }
  attr {
    key: "_class"
    value {
      list {
        s: "loc:@3/0/0/2/conv2d_1/kernel"
      }
    }
  }
  attr {
    key: "dtype"
    value {
      type: DT_FLOAT
    }
  }
  attr {
    key: "seed"
    value {
      i: 0
    }
  }
  attr {
    key: "seed2"
    value {
      i: 0
    }
  }
}
node {
  name: "3/0/0/2/conv2d_1/kernel/Initializer/random_uniform/sub"
  op: "Sub"
  input: "3/0/0/2/conv2d_1/kernel/Initializer/random_uniform/max"
  input: "3/0/0/2/conv2d_1/kernel/Initializer/random_uniform/min"
  attr {
    key: "T"
    value {
      type: DT_FLOAT
    }
  }
  attr {
    key: "_class"
    value {
      list {
        s: "loc:@3/0/0/2/conv2d_1/kernel"
      }
    }
  }
}
node {
  name: "3/0/0/2/conv2d_1/kernel/Initializer/random_uniform/mul"
  op: "Mul"
  input: "3/0/0/2/conv2d_1/kernel/Initializer/random_uniform/RandomUniform"
  input: "3/0/0/2/conv2d_1/kernel/Initializer/random_uniform/sub"
  attr {
    key: "T"
    value {
      type: DT_FLOAT
    }
  }
  attr {
    key: "_class"
    value {
      list {
        s: "loc:@3/0/0/2/conv2d_1/kernel"
      }
    }
  }
}
node {
  name: "3/0/0/2/conv2d_1/kernel/Initializer/random_uniform"
  op: "Add"
  input: "3/0/0/2/conv2d_1/kernel/Initializer/random_uniform/mul"
  input: "3/0/0/2/conv2d_1/kernel/Initializer/random_uniform/min"
  attr {
    key: "T"
    value {
      type: DT_FLOAT
    }
  }
  attr {
    key: "_class"
    value {
      list {
        s: "loc:@3/0/0/2/conv2d_1/kernel"
      }
    }
  }
}
node {
  name: "3/0/0/2/conv2d_1/kernel"
  op: "VarHandleOp"
  attr {
    key: "_class"
    value {
      list {
        s: "loc:@3/0/0/2/conv2d_1/kernel"
      }
    }
  }
  attr {
    key: "container"
    value {
      s: ""
    }
  }
  attr {
    key: "dtype"
    value {
      type: DT_FLOAT
    }
  }
  attr {
    key: "shape"
    value {
      shape {
        dim {
          size: 1
        }
        dim {
          size: 1
        }
        dim {
          size: 128
        }
        dim {
          size: 32
        }
      }
    }
  }
  attr {
    key: "shared_name"
    value {
      s: "3/0/0/2/conv2d_1/kernel"
    }
  }
}
node {
  name: "3/0/0/2/conv2d_1/kernel/IsInitialized/VarIsInitializedOp"
  op: "VarIsInitializedOp"
  input: "3/0/0/2/conv2d_1/kernel"
}
node {
  name: "3/0/0/2/conv2d_1/kernel/Assign"
  op: "AssignVariableOp"
  input: "3/0/0/2/conv2d_1/kernel"
  input: "3/0/0/2/conv2d_1/kernel/Initializer/random_uniform"
  attr {
    key: "dtype"
    value {
      type: DT_FLOAT
    }
  }
}
node {
  name: "3/0/0/2/conv2d_1/kernel/Read/ReadVariableOp"
  op: "ReadVariableOp"
  input: "3/0/0/2/conv2d_1/kernel"
  attr {
    key: "dtype"
    value {
      type: DT_FLOAT
    }
  }
}
node {
  name: "3/0/0/2/conv2d_1/bias/Initializer/zeros"
  op: "Const"
  attr {
    key: "_class"
    value {
      list {
        s: "loc:@3/0/0/2/conv2d_1/bias"
      }
    }
  }
  attr {
    key: "dtype"
    value {
      type: DT_FLOAT
    }
  }
  attr {
    key: "value"
    value {
      tensor {
        dtype: DT_FLOAT
        tensor_shape {
          dim {
            size: 32
          }
        }
        float_val: 0.0
      }
    }
  }
}
node {
  name: "3/0/0/2/conv2d_1/bias"
  op: "VarHandleOp"
  attr {
    key: "_class"
    value {
      list {
        s: "loc:@3/0/0/2/conv2d_1/bias"
      }
    }
  }
  attr {
    key: "container"
    value {
      s: ""
    }
  }
  attr {
    key: "dtype"
    value {
      type: DT_FLOAT
    }
  }
  attr {
    key: "shape"
    value {
      shape {
        dim {
          size: 32
        }
      }
    }
  }
  attr {
    key: "shared_name"
    value {
      s: "3/0/0/2/conv2d_1/bias"
    }
  }
}
node {
  name: "3/0/0/2/conv2d_1/bias/IsInitialized/VarIsInitializedOp"
  op: "VarIsInitializedOp"
  input: "3/0/0/2/conv2d_1/bias"
}
node {
  name: "3/0/0/2/conv2d_1/bias/Assign"
  op: "AssignVariableOp"
  input: "3/0/0/2/conv2d_1/bias"
  input: "3/0/0/2/conv2d_1/bias/Initializer/zeros"
  attr {
    key: "dtype"
    value {
      type: DT_FLOAT
    }
  }
}
node {
  name: "3/0/0/2/conv2d_1/bias/Read/ReadVariableOp"
  op: "ReadVariableOp"
  input: "3/0/0/2/conv2d_1/bias"
  attr {
    key: "dtype"
    value {
      type: DT_FLOAT
    }
  }
}
node {
  name: "module/3/0/0/2/conv2d_1/dilation_rate"
  op: "Const"
  attr {
    key: "dtype"
    value {
      type: DT_INT32
    }
  }
  attr {
    key: "value"
    value {
      tensor {
        dtype: DT_INT32
        tensor_shape {
          dim {
            size: 2
          }
        }
        tensor_content: "\001\000\000\000\001\000\000\000"
      }
    }
  }
}
node {
  name: "module/3/0/0/2/conv2d_1/Conv2D/ReadVariableOp"
  op: "ReadVariableOp"
  input: "3/0/0/2/conv2d_1/kernel"
  attr {
    key: "dtype"
    value {
      type: DT_FLOAT
    }
  }
}
node {
  name: "module/3/0/0/2/conv2d_1/Conv2D"
  op: "Conv2D"
  input: "module/3/0/0/1/concat"
  input: "module/3/0/0/2/conv2d_1/Conv2D/ReadVariableOp"
  attr {
    key: "T"
    value {
      type: DT_FLOAT
    }
  }
  attr {
    key: "data_format"
    value {
      s: "NHWC"
    }
  }
  attr {
    key: "dilations"
    value {
      list {
        i: 1
        i: 1
        i: 1
        i: 1
      }
    }
  }
  attr {
    key: "explicit_paddings"
    value {
      list {
      }
    }
  }
  attr {
    key: "padding"
    value {
      s: "VALID"
    }
  }
  attr {
    key: "strides"
    value {
      list {
        i: 1
        i: 1
        i: 1
        i: 1
      }
    }
  }
  attr {
    key: "use_cudnn_on_gpu"
    value {
      b: true
    }
  }
}
node {
  name: "module/3/0/0/2/conv2d_1/BiasAdd/ReadVariableOp"
  op: "ReadVariableOp"
  input: "3/0/0/2/conv2d_1/bias"
  attr {
    key: "dtype"
    value {
      type: DT_FLOAT
    }
  }
}
node {
  name: "module/3/0/0/2/conv2d_1/BiasAdd"
  op: "BiasAdd"
  input: "module/3/0/0/2/conv2d_1/Conv2D"
  input: "module/3/0/0/2/conv2d_1/BiasAdd/ReadVariableOp"
  attr {
    key: "T"
    value {
      type: DT_FLOAT
    }
  }
  attr {
    key: "data_format"
    value {
      s: "NHWC"
    }
  }
}
node {
  name: "module/3/0/0/2/batch_normalization_1/Const"
  op: "Const"
  attr {
    key: "dtype"
    value {
      type: DT_FLOAT
    }
  }
  attr {
    key: "value"
    value {
      tensor {
        dtype: DT_FLOAT
        tensor_shape {
          dim {
            size: 32
          }
        }
        float_val: 1.0
      }
    }
  }
}
node {
  name: "module/3/0/0/2/batch_normalization_1/Const_1"
  op: "Const"
  attr {
    key: "dtype"
    value {
      type: DT_FLOAT
    }
  }
  attr {
    key: "value"
    value {
      tensor {
        dtype: DT_FLOAT
        tensor_shape {
          dim {
            size: 32
          }
        }
        float_val: 0.0
      }
    }
  }
}
node {
  name: "3/0/0/2/batch_normalization_1/moving_mean/Initializer/zeros"
  op: "Const"
  attr {
    key: "_class"
    value {
      list {
        s: "loc:@3/0/0/2/batch_normalization_1/moving_mean"
      }
    }
  }
  attr {
    key: "dtype"
    value {
      type: DT_FLOAT
    }
  }
  attr {
    key: "value"
    value {
      tensor {
        dtype: DT_FLOAT
        tensor_shape {
          dim {
            size: 32
          }
        }
        float_val: 0.0
      }
    }
  }
}
node {
  name: "3/0/0/2/batch_normalization_1/moving_mean"
  op: "VarHandleOp"
  attr {
    key: "_class"
    value {
      list {
        s: "loc:@3/0/0/2/batch_normalization_1/moving_mean"
      }
    }
  }
  attr {
    key: "container"
    value {
      s: ""
    }
  }
  attr {
    key: "dtype"
    value {
      type: DT_FLOAT
    }
  }
  attr {
    key: "shape"
    value {
      shape {
        dim {
          size: 32
        }
      }
    }
  }
  attr {
    key: "shared_name"
    value {
      s: "3/0/0/2/batch_normalization_1/moving_mean"
    }
  }
}
node {
  name: "3/0/0/2/batch_normalization_1/moving_mean/IsInitialized/VarIsInitializedOp"
  op: "VarIsInitializedOp"
  input: "3/0/0/2/batch_normalization_1/moving_mean"
}
node {
  name: "3/0/0/2/batch_normalization_1/moving_mean/Assign"
  op: "AssignVariableOp"
  input: "3/0/0/2/batch_normalization_1/moving_mean"
  input: "3/0/0/2/batch_normalization_1/moving_mean/Initializer/zeros"
  attr {
    key: "dtype"
    value {
      type: DT_FLOAT
    }
  }
}
node {
  name: "3/0/0/2/batch_normalization_1/moving_mean/Read/ReadVariableOp"
  op: "ReadVariableOp"
  input: "3/0/0/2/batch_normalization_1/moving_mean"
  attr {
    key: "dtype"
    value {
      type: DT_FLOAT
    }
  }
}
node {
  name: "3/0/0/2/batch_normalization_1/moving_variance/Initializer/ones"
  op: "Const"
  attr {
    key: "_class"
    value {
      list {
        s: "loc:@3/0/0/2/batch_normalization_1/moving_variance"
      }
    }
  }
  attr {
    key: "dtype"
    value {
      type: DT_FLOAT
    }
  }
  attr {
    key: "value"
    value {
      tensor {
        dtype: DT_FLOAT
        tensor_shape {
          dim {
            size: 32
          }
        }
        float_val: 1.0
      }
    }
  }
}
node {
  name: "3/0/0/2/batch_normalization_1/moving_variance"
  op: "VarHandleOp"
  attr {
    key: "_class"
    value {
      list {
        s: "loc:@3/0/0/2/batch_normalization_1/moving_variance"
      }
    }
  }
  attr {
    key: "container"
    value {
      s: ""
    }
  }
  attr {
    key: "dtype"
    value {
      type: DT_FLOAT
    }
  }
  attr {
    key: "shape"
    value {
      shape {
        dim {
          size: 32
        }
      }
    }
  }
  attr {
    key: "shared_name"
    value {
      s: "3/0/0/2/batch_normalization_1/moving_variance"
    }
  }
}
node {
  name: "3/0/0/2/batch_normalization_1/moving_variance/IsInitialized/VarIsInitializedOp"
  op: "VarIsInitializedOp"
  input: "3/0/0/2/batch_normalization_1/moving_variance"
}
node {
  name: "3/0/0/2/batch_normalization_1/moving_variance/Assign"
  op: "AssignVariableOp"
  input: "3/0/0/2/batch_normalization_1/moving_variance"
  input: "3/0/0/2/batch_normalization_1/moving_variance/Initializer/ones"
  attr {
    key: "dtype"
    value {
      type: DT_FLOAT
    }
  }
}
node {
  name: "3/0/0/2/batch_normalization_1/moving_variance/Read/ReadVariableOp"
  op: "ReadVariableOp"
  input: "3/0/0/2/batch_normalization_1/moving_variance"
  attr {
    key: "dtype"
    value {
      type: DT_FLOAT
    }
  }
}
node {
  name: "module/3/0/0/2/batch_normalization_1/FusedBatchNormV3/ReadVariableOp"
  op: "ReadVariableOp"
  input: "3/0/0/2/batch_normalization_1/moving_mean"
  attr {
    key: "dtype"
    value {
      type: DT_FLOAT
    }
  }
}
node {
  name: "module/3/0/0/2/batch_normalization_1/FusedBatchNormV3/ReadVariableOp_1"
  op: "ReadVariableOp"
  input: "3/0/0/2/batch_normalization_1/moving_variance"
  attr {
    key: "dtype"
    value {
      type: DT_FLOAT
    }
  }
}
node {
  name: "module/3/0/0/2/batch_normalization_1/FusedBatchNormV3"
  op: "FusedBatchNormV3"
  input: "module/3/0/0/2/conv2d_1/BiasAdd"
  input: "module/3/0/0/2/batch_normalization_1/Const"
  input: "module/3/0/0/2/batch_normalization_1/Const_1"
  input: "module/3/0/0/2/batch_normalization_1/FusedBatchNormV3/ReadVariableOp"
  input: "module/3/0/0/2/batch_normalization_1/FusedBatchNormV3/ReadVariableOp_1"
  attr {
    key: "T"
    value {
      type: DT_FLOAT
    }
  }
  attr {
    key: "U"
    value {
      type: DT_FLOAT
    }
  }
  attr {
    key: "data_format"
    value {
      s: "NHWC"
    }
  }
  attr {
    key: "epsilon"
    value {
      f: 0.0010000000474974513
    }
  }
  attr {
    key: "is_training"
    value {
      b: false
    }
  }
}
node {
  name: "module/3/0/0/2/batch_normalization_1/Const_2"
  op: "Const"
  attr {
    key: "dtype"
    value {
      type: DT_FLOAT
    }
  }
  attr {
    key: "value"
    value {
      tensor {
        dtype: DT_FLOAT
        tensor_shape {
        }
        float_val: 0.9900000095367432
      }
    }
  }
}
node {
  name: "module/3/0/0/2/Relu_1"
  op: "Relu"
  input: "module/3/0/0/2/batch_normalization_1/FusedBatchNormV3"
  attr {
    key: "T"
    value {
      type: DT_FLOAT
    }
  }
}
node {
  name: "3/0/0/2/conv2d_2/kernel/Initializer/random_uniform/shape"
  op: "Const"
  attr {
    key: "_class"
    value {
      list {
        s: "loc:@3/0/0/2/conv2d_2/kernel"
      }
    }
  }
  attr {
    key: "dtype"
    value {
      type: DT_INT32
    }
  }
  attr {
    key: "value"
    value {
      tensor {
        dtype: DT_INT32
        tensor_shape {
          dim {
            size: 4
          }
        }
        tensor_content: "\003\000\000\000\003\000\000\000 \000\000\000 \000\000\000"
      }
    }
  }
}
node {
  name: "3/0/0/2/conv2d_2/kernel/Initializer/random_uniform/min"
  op: "Const"
  attr {
    key: "_class"
    value {
      list {
        s: "loc:@3/0/0/2/conv2d_2/kernel"
      }
    }
  }
  attr {
    key: "dtype"
    value {
      type: DT_FLOAT
    }
  }
  attr {
    key: "value"
    value {
      tensor {
        dtype: DT_FLOAT
        tensor_shape {
        }
        float_val: -0.10206207633018494
      }
    }
  }
}
node {
  name: "3/0/0/2/conv2d_2/kernel/Initializer/random_uniform/max"
  op: "Const"
  attr {
    key: "_class"
    value {
      list {
        s: "loc:@3/0/0/2/conv2d_2/kernel"
      }
    }
  }
  attr {
    key: "dtype"
    value {
      type: DT_FLOAT
    }
  }
  attr {
    key: "value"
    value {
      tensor {
        dtype: DT_FLOAT
        tensor_shape {
        }
        float_val: 0.10206207633018494
      }
    }
  }
}
node {
  name: "3/0/0/2/conv2d_2/kernel/Initializer/random_uniform/RandomUniform"
  op: "RandomUniform"
  input: "3/0/0/2/conv2d_2/kernel/Initializer/random_uniform/shape"
  attr {
    key: "T"
    value {
      type: DT_INT32
    }
  }
  attr {
    key: "_class"
    value {
      list {
        s: "loc:@3/0/0/2/conv2d_2/kernel"
      }
    }
  }
  attr {
    key: "dtype"
    value {
      type: DT_FLOAT
    }
  }
  attr {
    key: "seed"
    value {
      i: 0
    }
  }
  attr {
    key: "seed2"
    value {
      i: 0
    }
  }
}
node {
  name: "3/0/0/2/conv2d_2/kernel/Initializer/random_uniform/sub"
  op: "Sub"
  input: "3/0/0/2/conv2d_2/kernel/Initializer/random_uniform/max"
  input: "3/0/0/2/conv2d_2/kernel/Initializer/random_uniform/min"
  attr {
    key: "T"
    value {
      type: DT_FLOAT
    }
  }
  attr {
    key: "_class"
    value {
      list {
        s: "loc:@3/0/0/2/conv2d_2/kernel"
      }
    }
  }
}
node {
  name: "3/0/0/2/conv2d_2/kernel/Initializer/random_uniform/mul"
  op: "Mul"
  input: "3/0/0/2/conv2d_2/kernel/Initializer/random_uniform/RandomUniform"
  input: "3/0/0/2/conv2d_2/kernel/Initializer/random_uniform/sub"
  attr {
    key: "T"
    value {
      type: DT_FLOAT
    }
  }
  attr {
    key: "_class"
    value {
      list {
        s: "loc:@3/0/0/2/conv2d_2/kernel"
      }
    }
  }
}
node {
  name: "3/0/0/2/conv2d_2/kernel/Initializer/random_uniform"
  op: "Add"
  input: "3/0/0/2/conv2d_2/kernel/Initializer/random_uniform/mul"
  input: "3/0/0/2/conv2d_2/kernel/Initializer/random_uniform/min"
  attr {
    key: "T"
    value {
      type: DT_FLOAT
    }
  }
  attr {
    key: "_class"
    value {
      list {
        s: "loc:@3/0/0/2/conv2d_2/kernel"
      }
    }
  }
}
node {
  name: "3/0/0/2/conv2d_2/kernel"
  op: "VarHandleOp"
  attr {
    key: "_class"
    value {
      list {
        s: "loc:@3/0/0/2/conv2d_2/kernel"
      }
    }
  }
  attr {
    key: "container"
    value {
      s: ""
    }
  }
  attr {
    key: "dtype"
    value {
      type: DT_FLOAT
    }
  }
  attr {
    key: "shape"
    value {
      shape {
        dim {
          size: 3
        }
        dim {
          size: 3
        }
        dim {
          size: 32
        }
        dim {
          size: 32
        }
      }
    }
  }
  attr {
    key: "shared_name"
    value {
      s: "3/0/0/2/conv2d_2/kernel"
    }
  }
}
node {
  name: "3/0/0/2/conv2d_2/kernel/IsInitialized/VarIsInitializedOp"
  op: "VarIsInitializedOp"
  input: "3/0/0/2/conv2d_2/kernel"
}
node {
  name: "3/0/0/2/conv2d_2/kernel/Assign"
  op: "AssignVariableOp"
  input: "3/0/0/2/conv2d_2/kernel"
  input: "3/0/0/2/conv2d_2/kernel/Initializer/random_uniform"
  attr {
    key: "dtype"
    value {
      type: DT_FLOAT
    }
  }
}
node {
  name: "3/0/0/2/conv2d_2/kernel/Read/ReadVariableOp"
  op: "ReadVariableOp"
  input: "3/0/0/2/conv2d_2/kernel"
  attr {
    key: "dtype"
    value {
      type: DT_FLOAT
    }
  }
}
node {
  name: "3/0/0/2/conv2d_2/bias/Initializer/zeros"
  op: "Const"
  attr {
    key: "_class"
    value {
      list {
        s: "loc:@3/0/0/2/conv2d_2/bias"
      }
    }
  }
  attr {
    key: "dtype"
    value {
      type: DT_FLOAT
    }
  }
  attr {
    key: "value"
    value {
      tensor {
        dtype: DT_FLOAT
        tensor_shape {
          dim {
            size: 32
          }
        }
        float_val: 0.0
      }
    }
  }
}
node {
  name: "3/0/0/2/conv2d_2/bias"
  op: "VarHandleOp"
  attr {
    key: "_class"
    value {
      list {
        s: "loc:@3/0/0/2/conv2d_2/bias"
      }
    }
  }
  attr {
    key: "container"
    value {
      s: ""
    }
  }
  attr {
    key: "dtype"
    value {
      type: DT_FLOAT
    }
  }
  attr {
    key: "shape"
    value {
      shape {
        dim {
          size: 32
        }
      }
    }
  }
  attr {
    key: "shared_name"
    value {
      s: "3/0/0/2/conv2d_2/bias"
    }
  }
}
node {
  name: "3/0/0/2/conv2d_2/bias/IsInitialized/VarIsInitializedOp"
  op: "VarIsInitializedOp"
  input: "3/0/0/2/conv2d_2/bias"
}
node {
  name: "3/0/0/2/conv2d_2/bias/Assign"
  op: "AssignVariableOp"
  input: "3/0/0/2/conv2d_2/bias"
  input: "3/0/0/2/conv2d_2/bias/Initializer/zeros"
  attr {
    key: "dtype"
    value {
      type: DT_FLOAT
    }
  }
}
node {
  name: "3/0/0/2/conv2d_2/bias/Read/ReadVariableOp"
  op: "ReadVariableOp"
  input: "3/0/0/2/conv2d_2/bias"
  attr {
    key: "dtype"
    value {
      type: DT_FLOAT
    }
  }
}
node {
  name: "module/3/0/0/2/conv2d_2/dilation_rate"
  op: "Const"
  attr {
    key: "dtype"
    value {
      type: DT_INT32
    }
  }
  attr {
    key: "value"
    value {
      tensor {
        dtype: DT_INT32
        tensor_shape {
          dim {
            size: 2
          }
        }
        tensor_content: "\001\000\000\000\001\000\000\000"
      }
    }
  }
}
node {
  name: "module/3/0/0/2/conv2d_2/Conv2D/ReadVariableOp"
  op: "ReadVariableOp"
  input: "3/0/0/2/conv2d_2/kernel"
  attr {
    key: "dtype"
    value {
      type: DT_FLOAT
    }
  }
}
node {
  name: "module/3/0/0/2/conv2d_2/Conv2D"
  op: "Conv2D"
  input: "module/3/0/0/2/Relu_1"
  input: "module/3/0/0/2/conv2d_2/Conv2D/ReadVariableOp"
  attr {
    key: "T"
    value {
      type: DT_FLOAT
    }
  }
  attr {
    key: "data_format"
    value {
      s: "NHWC"
    }
  }
  attr {
    key: "dilations"
    value {
      list {
        i: 1
        i: 1
        i: 1
        i: 1
      }
    }
  }
  attr {
    key: "explicit_paddings"
    value {
      list {
      }
    }
  }
  attr {
    key: "padding"
    value {
      s: "SAME"
    }
  }
  attr {
    key: "strides"
    value {
      list {
        i: 1
        i: 1
        i: 1
        i: 1
      }
    }
  }
  attr {
    key: "use_cudnn_on_gpu"
    value {
      b: true
    }
  }
}
node {
  name: "module/3/0/0/2/conv2d_2/BiasAdd/ReadVariableOp"
  op: "ReadVariableOp"
  input: "3/0/0/2/conv2d_2/bias"
  attr {
    key: "dtype"
    value {
      type: DT_FLOAT
    }
  }
}
node {
  name: "module/3/0/0/2/conv2d_2/BiasAdd"
  op: "BiasAdd"
  input: "module/3/0/0/2/conv2d_2/Conv2D"
  input: "module/3/0/0/2/conv2d_2/BiasAdd/ReadVariableOp"
  attr {
    key: "T"
    value {
      type: DT_FLOAT
    }
  }
  attr {
    key: "data_format"
    value {
      s: "NHWC"
    }
  }
}
node {
  name: "module/3/0/0/2/batch_normalization_2/Const"
  op: "Const"
  attr {
    key: "dtype"
    value {
      type: DT_FLOAT
    }
  }
  attr {
    key: "value"
    value {
      tensor {
        dtype: DT_FLOAT
        tensor_shape {
          dim {
            size: 32
          }
        }
        float_val: 1.0
      }
    }
  }
}
node {
  name: "module/3/0/0/2/batch_normalization_2/Const_1"
  op: "Const"
  attr {
    key: "dtype"
    value {
      type: DT_FLOAT
    }
  }
  attr {
    key: "value"
    value {
      tensor {
        dtype: DT_FLOAT
        tensor_shape {
          dim {
            size: 32
          }
        }
        float_val: 0.0
      }
    }
  }
}
node {
  name: "3/0/0/2/batch_normalization_2/moving_mean/Initializer/zeros"
  op: "Const"
  attr {
    key: "_class"
    value {
      list {
        s: "loc:@3/0/0/2/batch_normalization_2/moving_mean"
      }
    }
  }
  attr {
    key: "dtype"
    value {
      type: DT_FLOAT
    }
  }
  attr {
    key: "value"
    value {
      tensor {
        dtype: DT_FLOAT
        tensor_shape {
          dim {
            size: 32
          }
        }
        float_val: 0.0
      }
    }
  }
}
node {
  name: "3/0/0/2/batch_normalization_2/moving_mean"
  op: "VarHandleOp"
  attr {
    key: "_class"
    value {
      list {
        s: "loc:@3/0/0/2/batch_normalization_2/moving_mean"
      }
    }
  }
  attr {
    key: "container"
    value {
      s: ""
    }
  }
  attr {
    key: "dtype"
    value {
      type: DT_FLOAT
    }
  }
  attr {
    key: "shape"
    value {
      shape {
        dim {
          size: 32
        }
      }
    }
  }
  attr {
    key: "shared_name"
    value {
      s: "3/0/0/2/batch_normalization_2/moving_mean"
    }
  }
}
node {
  name: "3/0/0/2/batch_normalization_2/moving_mean/IsInitialized/VarIsInitializedOp"
  op: "VarIsInitializedOp"
  input: "3/0/0/2/batch_normalization_2/moving_mean"
}
node {
  name: "3/0/0/2/batch_normalization_2/moving_mean/Assign"
  op: "AssignVariableOp"
  input: "3/0/0/2/batch_normalization_2/moving_mean"
  input: "3/0/0/2/batch_normalization_2/moving_mean/Initializer/zeros"
  attr {
    key: "dtype"
    value {
      type: DT_FLOAT
    }
  }
}
node {
  name: "3/0/0/2/batch_normalization_2/moving_mean/Read/ReadVariableOp"
  op: "ReadVariableOp"
…
  name: "3/0/1/0/conv2d_4/kernel/Initializer/random_uniform/min"
  op: "Const"
  attr {
    key: "_class"
    value {
      list {
        s: "loc:@3/0/1/0/conv2d_4/kernel"
      }
    }
  }
  attr {
    key: "dtype"
    value {
      type: DT_FLOAT
    }
  }
  attr {
    key: "value"
    value {
      tensor {
        dtype: DT_FLOAT
        tensor_shape {
        }
        float_val: -0.039123039692640305
      }
    }
  }
}
node {
  name: "3/0/1/0/conv2d_4/kernel/Initializer/random_uniform/max"
  op: "Const"
  attr {
    key: "_class"
    value {
      list {
        s: "loc:@3/0/1/0/conv2d_4/kernel"
      }
    }
  }
  attr {
    key: "dtype"
    value {
      type: DT_FLOAT
    }
  }
  attr {
    key: "value"
    value {
      tensor {
        dtype: DT_FLOAT
        tensor_shape {
        }
        float_val: 0.039123039692640305
      }
    }
  }
}
node {
  name: "3/0/1/0/conv2d_4/kernel/Initializer/random_uniform/RandomUniform"
  op: "RandomUniform"
  input: "3/0/1/0/conv2d_4/kernel/Initializer/random_uniform/shape"
  attr {
    key: "T"
    value {
      type: DT_INT32
    }
  }
  attr {
    key: "_class"
    value {
      list {
        s: "loc:@3/0/1/0/conv2d_4/kernel"
      }
    }
  }
  attr {
    key: "dtype"
    value {
      type: DT_FLOAT
    }
  }
  attr {
    key: "seed"
    value {
      i: 0
    }
  }
  attr {
    key: "seed2"
    value {
      i: 0
    }
  }
}
node {
  name: "3/0/1/0/conv2d_4/kernel/Initializer/random_uniform/sub"
  op: "Sub"
  input: "3/0/1/0/conv2d_4/kernel/Initializer/random_uniform/max"
  input: "3/0/1/0/conv2d_4/kernel/Initializer/random_uniform/min"
  attr {
    key: "T"
    value {
      type: DT_FLOAT
    }
  }
  attr {
    key: "_class"
    value {
      list {
        s: "loc:@3/0/1/0/conv2d_4/kernel"
      }
    }
  }
}
node {
  name: "3/0/1/0/conv2d_4/kernel/Initializer/random_uniform/mul"
  op: "Mul"
  input: "3/0/1/0/conv2d_4/kernel/Initializer/random_uniform/RandomUniform"
  input: "3/0/1/0/conv2d_4/kernel/Initializer/random_uniform/sub"
  attr {
    key: "T"
    value {
      type: DT_FLOAT
    }
  }
  attr {
    key: "_class"
    value {
      list {
        s: "loc:@3/0/1/0/conv2d_4/kernel"
      }
    }
  }
}
node {
  name: "3/0/1/0/conv2d_4/kernel/Initializer/random_uniform"
  op: "Add"
  input: "3/0/1/0/conv2d_4/kernel/Initializer/random_uniform/mul"
  input: "3/0/1/0/conv2d_4/kernel/Initializer/random_uniform/min"
  attr {
    key: "T"
    value {
      type: DT_FLOAT
    }
  }
  attr {
    key: "_class"
    value {
      list {
        s: "loc:@3/0/1/0/conv2d_4/kernel"
      }
    }
  }
}
node {
  name: "3/0/1/0/conv2d_4/kernel"
  op: "VarHandleOp"
  attr {
    key: "_class"
    value {
      list {
        s: "loc:@3/0/1/0/conv2d_4/kernel"
      }
    }
  }
  attr {
    key: "container"
    value {
      s: ""
    }
  }
  attr {
    key: "dtype"
    value {
      type: DT_FLOAT
    }
  }
  attr {
    key: "shape"
    value {
      shape {
        dim {
          size: 7
        }
        dim {
          size: 7
        }
        dim {
          size: 64
        }
        dim {
          size: 16
        }
      }
    }
  }
  attr {
    key: "shared_name"
    value {
      s: "3/0/1/0/conv2d_4/kernel"
    }
  }
}
node {
  name: "3/0/1/0/conv2d_4/kernel/IsInitialized/VarIsInitializedOp"
  op: "VarIsInitializedOp"
  input: "3/0/1/0/conv2d_4/kernel"
}
node {
  name: "3/0/1/0/conv2d_4/kernel/Assign"
  op: "AssignVariableOp"
  input: "3/0/1/0/conv2d_4/kernel"
  input: "3/0/1/0/conv2d_4/kernel/Initializer/random_uniform"
  attr {
    key: "dtype"
    value {
      type: DT_FLOAT
    }
  }
}
node {
  name: "3/0/1/0/conv2d_4/kernel/Read/ReadVariableOp"
  op: "ReadVariableOp"
  input: "3/0/1/0/conv2d_4/kernel"
  attr {
    key: "dtype"
    value {
      type: DT_FLOAT
    }
  }
}
node {
  name: "3/0/1/0/conv2d_4/bias/Initializer/zeros"
  op: "Const"
  attr {
    key: "_class"
    value {
      list {
        s: "loc:@3/0/1/0/conv2d_4/bias"
      }
    }
  }
  attr {
    key: "dtype"
    value {
      type: DT_FLOAT
    }
  }
  attr {
    key: "value"
    value {
      tensor {
        dtype: DT_FLOAT
        tensor_shape {
          dim {
            size: 16
          }
        }
        float_val: 0.0
      }
    }
  }
}
node {
  name: "3/0/1/0/conv2d_4/bias"
  op: "VarHandleOp"
  attr {
    key: "_class"
    value {
      list {
        s: "loc:@3/0/1/0/conv2d_4/bias"
      }
    }
  }
  attr {
    key: "container"
    value {
      s: ""
    }
  }
  attr {
    key: "dtype"
    value {
      type: DT_FLOAT
    }
  }
  attr {
    key: "shape"
    value {
      shape {
        dim {
          size: 16
        }
      }
    }
  }
  attr {
    key: "shared_name"
    value {
      s: "3/0/1/0/conv2d_4/bias"
    }
  }
}
node {
  name: "3/0/1/0/conv2d_4/bias/IsInitialized/VarIsInitializedOp"
  op: "VarIsInitializedOp"
  input: "3/0/1/0/conv2d_4/bias"
}
node {
  name: "3/0/1/0/conv2d_4/bias/Assign"
  op: "AssignVariableOp"
  input: "3/0/1/0/conv2d_4/bias"
  input: "3/0/1/0/conv2d_4/bias/Initializer/zeros"
  attr {
    key: "dtype"
    value {
      type: DT_FLOAT
    }
  }
}
node {
  name: "3/0/1/0/conv2d_4/bias/Read/ReadVariableOp"
  op: "ReadVariableOp"
  input: "3/0/1/0/conv2d_4/bias"
  attr {
    key: "dtype"
    value {
      type: DT_FLOAT
    }
  }
}
node {
  name: "module/3/0/1/0/conv2d_4/dilation_rate"
  op: "Const"
  attr {
    key: "dtype"
    value {
      type: DT_INT32
    }
  }
  attr {
    key: "value"
    value {
      tensor {
        dtype: DT_INT32
        tensor_shape {
          dim {
            size: 2
          }
        }
        tensor_content: "\001\000\000\000\001\000\000\000"
      }
    }
  }
}
node {
  name: "module/3/0/1/0/conv2d_4/Conv2D/ReadVariableOp"
  op: "ReadVariableOp"
  input: "3/0/1/0/conv2d_4/kernel"
  attr {
    key: "dtype"
    value {
      type: DT_FLOAT
    }
  }
}
node {
  name: "module/3/0/1/0/conv2d_4/Conv2D"
  op: "Conv2D"
  input: "module/3/0/1/0/Relu_3"
  input: "module/3/0/1/0/conv2d_4/Conv2D/ReadVariableOp"
  attr {
    key: "T"
    value {
      type: DT_FLOAT
    }
  }
  attr {
    key: "data_format"
    value {
      s: "NHWC"
    }
  }
  attr {
    key: "dilations"
    value {
      list {
        i: 1
        i: 1
        i: 1
        i: 1
      }
    }
  }
  attr {
    key: "explicit_paddings"
    value {
      list {
      }
    }
  }
  attr {
    key: "padding"
    value {
      s: "SAME"
    }
  }
  attr {
    key: "strides"
    value {
      list {
        i: 1
        i: 1
        i: 1
        i: 1
      }
    }
  }
  attr {
    key: "use_cudnn_on_gpu"
    value {
      b: true
    }
  }
}
node {
  name: "module/3/0/1/0/conv2d_4/BiasAdd/ReadVariableOp"
  op: "ReadVariableOp"
  input: "3/0/1/0/conv2d_4/bias"
  attr {
    key: "dtype"
    value {
      type: DT_FLOAT
    }
  }
}
node {
  name: "module/3/0/1/0/conv2d_4/BiasAdd"
  op: "BiasAdd"
  input: "module/3/0/1/0/conv2d_4/Conv2D"
  input: "module/3/0/1/0/conv2d_4/BiasAdd/ReadVariableOp"
  attr {
    key: "T"
    value {
      type: DT_FLOAT
    }
  }
  attr {
    key: "data_format"
    value {
      s: "NHWC"
    }
  }
}
node {
  name: "module/3/0/1/0/batch_normalization_4/Const"
  op: "Const"
  attr {
    key: "dtype"
    value {
      type: DT_FLOAT
    }
  }
  attr {
    key: "value"
    value {
      tensor {
        dtype: DT_FLOAT
        tensor_shape {
          dim {
            size: 16
          }
        }
        float_val: 1.0
      }
    }
  }
}
node {
  name: "module/3/0/1/0/batch_normalization_4/Const_1"
  op: "Const"
  attr {
    key: "dtype"
    value {
      type: DT_FLOAT
    }
  }
  attr {
    key: "value"
    value {
      tensor {
        dtype: DT_FLOAT
        tensor_shape {
          dim {
            size: 16
          }
        }
        float_val: 0.0
      }
    }
  }
}
node {
  name: "3/0/1/0/batch_normalization_4/moving_mean/Initializer/zeros"
  op: "Const"
  attr {
    key: "_class"
    value {
      list {
        s: "loc:@3/0/1/0/batch_normalization_4/moving_mean"
      }
    }
  }
  attr {
    key: "dtype"
    value {
      type: DT_FLOAT
    }
  }
  attr {
    key: "value"
    value {
      tensor {
        dtype: DT_FLOAT
        tensor_shape {
          dim {
            size: 16
          }
        }
        float_val: 0.0
      }
    }
  }
}
node {
  name: "3/0/1/0/batch_normalization_4/moving_mean"
  op: "VarHandleOp"
  attr {
    key: "_class"
    value {
      list {
        s: "loc:@3/0/1/0/batch_normalization_4/moving_mean"
      }
    }
  }
  attr {
    key: "container"
    value {
      s: ""
    }
  }
  attr {
    key: "dtype"
    value {
      type: DT_FLOAT
    }
  }
  attr {
    key: "shape"
    value {
      shape {
        dim {
          size: 16
        }
      }
    }
  }
  attr {
    key: "shared_name"
    value {
      s: "3/0/1/0/batch_normalization_4/moving_mean"
    }
  }
}
node {
  name: "3/0/1/0/batch_normalization_4/moving_mean/IsInitialized/VarIsInitializedOp"
  op: "VarIsInitializedOp"
  input: "3/0/1/0/batch_normalization_4/moving_mean"
}
node {
  name: "3/0/1/0/batch_normalization_4/moving_mean/Assign"
  op: "AssignVariableOp"
  input: "3/0/1/0/batch_normalization_4/moving_mean"
  input: "3/0/1/0/batch_normalization_4/moving_mean/Initializer/zeros"
  attr {
    key: "dtype"
    value {
      type: DT_FLOAT
    }
  }
}
node {
  name: "3/0/1/0/batch_normalization_4/moving_mean/Read/ReadVariableOp"
  op: "ReadVariableOp"
  input: "3/0/1/0/batch_normalization_4/moving_mean"
  attr {
    key: "dtype"
    value {
      type: DT_FLOAT
    }
  }
}
node {
  name: "3/0/1/0/batch_normalization_4/moving_variance/Initializer/ones"
  op: "Const"
  attr {
    key: "_class"
    value {
      list {
        s: "loc:@3/0/1/0/batch_normalization_4/moving_variance"
      }
    }
  }
  attr {
    key: "dtype"
    value {
      type: DT_FLOAT
    }
  }
  attr {
    key: "value"
    value {
      tensor {
        dtype: DT_FLOAT
        tensor_shape {
          dim {
            size: 16
          }
        }
        float_val: 1.0
      }
    }
  }
}
node {
  name: "3/0/1/0/batch_normalization_4/moving_variance"
  op: "VarHandleOp"
  attr {
    key: "_class"
    value {
      list {
        s: "loc:@3/0/1/0/batch_normalization_4/moving_variance"
      }
    }
  }
  attr {
    key: "container"
    value {
      s: ""
    }
  }
  attr {
    key: "dtype"
    value {
      type: DT_FLOAT
    }
  }
  attr {
    key: "shape"
    value {
      shape {
        dim {
          size: 16
        }
      }
    }
  }
  attr {
    key: "shared_name"
    value {
      s: "3/0/1/0/batch_normalization_4/moving_variance"
    }
  }
}
node {
  name: "3/0/1/0/batch_normalization_4/moving_variance/IsInitialized/VarIsInitializedOp"
  op: "VarIsInitializedOp"
  input: "3/0/1/0/batch_normalization_4/moving_variance"
}
node {
  name: "3/0/1/0/batch_normalization_4/moving_variance/Assign"
  op: "AssignVariableOp"
  input: "3/0/1/0/batch_normalization_4/moving_variance"
  input: "3/0/1/0/batch_normalization_4/moving_variance/Initializer/ones"
  attr {
    key: "dtype"
    value {
      type: DT_FLOAT
    }
  }
}
node {
  name: "3/0/1/0/batch_normalization_4/moving_variance/Read/ReadVariableOp"
  op: "ReadVariableOp"
  input: "3/0/1/0/batch_normalization_4/moving_variance"
  attr {
    key: "dtype"
    value {
      type: DT_FLOAT
    }
  }
}
node {
  name: "module/3/0/1/0/batch_normalization_4/FusedBatchNormV3/ReadVariableOp"
  op: "ReadVariableOp"
  input: "3/0/1/0/batch_normalization_4/moving_mean"
  attr {
    key: "dtype"
    value {
      type: DT_FLOAT
    }
  }
}
node {
  name: "module/3/0/1/0/batch_normalization_4/FusedBatchNormV3/ReadVariableOp_1"
  op: "ReadVariableOp"
  input: "3/0/1/0/batch_normalization_4/moving_variance"
  attr {
    key: "dtype"
    value {
      type: DT_FLOAT
    }
  }
}
node {
  name: "module/3/0/1/0/batch_normalization_4/FusedBatchNormV3"
  op: "FusedBatchNormV3"
  input: "module/3/0/1/0/conv2d_4/BiasAdd"
  input: "module/3/0/1/0/batch_normalization_4/Const"
  input: "module/3/0/1/0/batch_normalization_4/Const_1"
  input: "module/3/0/1/0/batch_normalization_4/FusedBatchNormV3/ReadVariableOp"
  input: "module/3/0/1/0/batch_normalization_4/FusedBatchNormV3/ReadVariableOp_1"
  attr {
    key: "T"
    value {
      type: DT_FLOAT
    }
  }
  attr {
    key: "U"
    value {
      type: DT_FLOAT
    }
  }
  attr {
    key: "data_format"
    value {
      s: "NHWC"
    }
  }
  attr {
    key: "epsilon"
    value {
      f: 0.0010000000474974513
    }
  }
  attr {
    key: "is_training"
    value {
      b: false
    }
  }
}
node {
  name: "module/3/0/1/0/batch_normalization_4/Const_2"
  op: "Const"
  attr {
    key: "dtype"
    value {
      type: DT_FLOAT
    }
  }
  attr {
    key: "value"
    value {
      tensor {
        dtype: DT_FLOAT
        tensor_shape {
        }
        float_val: 0.9900000095367432
      }
    }
  }
}
node {
  name: "module/3/0/1/0/Relu_4"
  op: "Relu"
  input: "module/3/0/1/0/batch_normalization_4/FusedBatchNormV3"
  attr {
    key: "T"
    value {
      type: DT_FLOAT
    }
  }
}
node {
  name: "3/0/1/0/conv2d_5/kernel/Initializer/random_uniform/shape"
  op: "Const"
  attr {
    key: "_class"
    value {
      list {
        s: "loc:@3/0/1/0/conv2d_5/kernel"
      }
    }
  }
  attr {
    key: "dtype"
    value {
      type: DT_INT32
    }
  }
  attr {
    key: "value"
    value {
      tensor {
        dtype: DT_INT32
        tensor_shape {
          dim {
            size: 4
          }
        }
        tensor_content: "\001\000\000\000\001\000\000\000\200\000\000\000@\000\000\000"
      }
    }
  }
}
node {
  name: "3/0/1/0/conv2d_5/kernel/Initializer/random_uniform/min"
  op: "Const"
  attr {
    key: "_class"
    value {
      list {
        s: "loc:@3/0/1/0/conv2d_5/kernel"
      }
    }
  }
  attr {
    key: "dtype"
    value {
      type: DT_FLOAT
    }
  }
  attr {
    key: "value"
    value {
      tensor {
        dtype: DT_FLOAT
        tensor_shape {
        }
        float_val: -0.1767766922712326
      }
    }
  }
}
node {
  name: "3/0/1/0/conv2d_5/kernel/Initializer/random_uniform/max"
  op: "Const"
  attr {
    key: "_class"
    value {
      list {
        s: "loc:@3/0/1/0/conv2d_5/kernel"
      }
    }
  }
  attr {
    key: "dtype"
    value {
      type: DT_FLOAT
    }
  }
  attr {
    key: "value"
    value {
      tensor {
        dtype: DT_FLOAT
        tensor_shape {
        }
        float_val: 0.1767766922712326
      }
    }
  }
}
node {
  name: "3/0/1/0/conv2d_5/kernel/Initializer/random_uniform/RandomUniform"
  op: "RandomUniform"
  input: "3/0/1/0/conv2d_5/kernel/Initializer/random_uniform/shape"
  attr {
    key: "T"
    value {
      type: DT_INT32
    }
  }
  attr {
    key: "_class"
    value {
      list {
        s: "loc:@3/0/1/0/conv2d_5/kernel"
      }
    }
  }
  attr {
    key: "dtype"
    value {
      type: DT_FLOAT
    }
  }
  attr {
    key: "seed"
    value {
      i: 0
    }
  }
  attr {
    key: "seed2"
    value {
      i: 0
    }
  }
}
node {
  name: "3/0/1/0/conv2d_5/kernel/Initializer/random_uniform/sub"
  op: "Sub"
  input: "3/0/1/0/conv2d_5/kernel/Initializer/random_uniform/max"
  input: "3/0/1/0/conv2d_5/kernel/Initializer/random_uniform/min"
  attr {
    key: "T"
    value {
      type: DT_FLOAT
    }
  }
  attr {
    key: "_class"
    value {
      list {
        s: "loc:@3/0/1/0/conv2d_5/kernel"
      }
    }
  }
}
node {
  name: "3/0/1/0/conv2d_5/kernel/Initializer/random_uniform/mul"
  op: "Mul"
  input: "3/0/1/0/conv2d_5/kernel/Initializer/random_uniform/RandomUniform"
  input: "3/0/1/0/conv2d_5/kernel/Initializer/random_uniform/sub"
  attr {
    key: "T"
    value {
      type: DT_FLOAT
    }
  }
  attr {
    key: "_class"
    value {
      list {
        s: "loc:@3/0/1/0/conv2d_5/kernel"
      }
    }
  }
}
node {
  name: "3/0/1/0/conv2d_5/kernel/Initializer/random_uniform"
  op: "Add"
  input: "3/0/1/0/conv2d_5/kernel/Initializer/random_uniform/mul"
  input: "3/0/1/0/conv2d_5/kernel/Initializer/random_uniform/min"
  attr {
    key: "T"
    value {
      type: DT_FLOAT
    }
  }
  attr {
    key: "_class"
    value {
      list {
        s: "loc:@3/0/1/0/conv2d_5/kernel"
      }
    }
  }
}
node {
  name: "3/0/1/0/conv2d_5/kernel"
  op: "VarHandleOp"
  attr {
    key: "_class"
    value {
      list {
        s: "loc:@3/0/1/0/conv2d_5/kernel"
      }
    }
  }
  attr {
    key: "container"
    value {
      s: ""
    }
  }
  attr {
    key: "dtype"
    value {
      type: DT_FLOAT
    }
  }
  attr {
    key: "shape"
    value {
      shape {
        dim {
          size: 1
        }
        dim {
          size: 1
        }
        dim {
          size: 128
        }
        dim {
          size: 64
        }
      }
    }
  }
  attr {
    key: "shared_name"
    value {
      s: "3/0/1/0/conv2d_5/kernel"
    }
  }
}
node {
  name: "3/0/1/0/conv2d_5/kernel/IsInitialized/VarIsInitializedOp"
  op: "VarIsInitializedOp"
  input: "3/0/1/0/conv2d_5/kernel"
}
node {
  name: "3/0/1/0/conv2d_5/kernel/Assign"
  op: "AssignVariableOp"
  input: "3/0/1/0/conv2d_5/kernel"
  input: "3/0/1/0/conv2d_5/kernel/Initializer/random_uniform"
  attr {
    key: "dtype"
    value {
      type: DT_FLOAT
    }
  }
}
node {
  name: "3/0/1/0/conv2d_5/kernel/Read/ReadVariableOp"
  op: "ReadVariableOp"
  input: "3/0/1/0/conv2d_5/kernel"
  attr {
    key: "dtype"
    value {
      type: DT_FLOAT
    }
  }
}
node {
  name: "3/0/1/0/conv2d_5/bias/Initializer/zeros"
  op: "Const"
  attr {
    key: "_class"
    value {
      list {
        s: "loc:@3/0/1/0/conv2d_5/bias"
      }
    }
  }
  attr {
    key: "dtype"
    value {
      type: DT_FLOAT
    }
  }
  attr {
    key: "value"
    value {
      tensor {
        dtype: DT_FLOAT
        tensor_shape {
          dim {
            size: 64
          }
        }
        float_val: 0.0
      }
    }
  }
}
node {
  name: "3/0/1/0/conv2d_5/bias"
  op: "VarHandleOp"
  attr {
    key: "_class"
    value {
      list {
        s: "loc:@3/0/1/0/conv2d_5/bias"
      }
    }
  }
  attr {
    key: "container"
    value {
      s: ""
    }
  }
  attr {
    key: "dtype"
    value {
      type: DT_FLOAT
    }
  }
  attr {
    key: "shape"
    value {
      shape {
        dim {
          size: 64
        }
      }
    }
  }
  attr {
    key: "shared_name"
    value {
      s: "3/0/1/0/conv2d_5/bias"
    }
  }
}
node {
  name: "3/0/1/0/conv2d_5/bias/IsInitialized/VarIsInitializedOp"
  op: "VarIsInitializedOp"
  input: "3/0/1/0/conv2d_5/bias"
}
node {
  name: "3/0/1/0/conv2d_5/bias/Assign"
  op: "AssignVariableOp"
  input: "3/0/1/0/conv2d_5/bias"
  input: "3/0/1/0/conv2d_5/bias/Initializer/zeros"
  attr {
    key: "dtype"
    value {
      type: DT_FLOAT
    }
  }
}
node {
  name: "3/0/1/0/conv2d_5/bias/Read/ReadVariableOp"
  op: "ReadVariableOp"
  input: "3/0/1/0/conv2d_5/bias"
  attr {
    key: "dtype"
    value {
      type: DT_FLOAT
    }
  }
}
node {
  name: "module/3/0/1/0/conv2d_5/dilation_rate"
  op: "Const"
  attr {
    key: "dtype"
    value {
      type: DT_INT32
    }
  }
  attr {
    key: "value"
    value {
      tensor {
        dtype: DT_INT32
        tensor_shape {
          dim {
            size: 2
          }
        }
        tensor_content: "\001\000\000\000\001\000\000\000"
      }
    }
  }
}
node {
  name: "module/3/0/1/0/conv2d_5/Conv2D/ReadVariableOp"
  op: "ReadVariableOp"
  input: "3/0/1/0/conv2d_5/kernel"
  attr {
    key: "dtype"
    value {
      type: DT_FLOAT
    }
  }
}
node {
  name: "module/3/0/1/0/conv2d_5/Conv2D"
  op: "Conv2D"
  input: "module/2/Relu"
  input: "module/3/0/1/0/conv2d_5/Conv2D/ReadVariableOp"
  attr {
    key: "T"
    value {
      type: DT_FLOAT
    }
  }
  attr {
    key: "data_format"
    value {
      s: "NHWC"
    }
  }
  attr {
    key: "dilations"
    value {
      list {
        i: 1
        i: 1
        i: 1
        i: 1
      }
    }
  }
  attr {
    key: "explicit_paddings"
    value {
      list {
      }
    }
  }
  attr {
    key: "padding"
    value {
      s: "VALID"
    }
  }
  attr {
    key: "strides"
    value {
      list {
        i: 1
        i: 1
        i: 1
        i: 1
      }
    }
  }
  attr {
    key: "use_cudnn_on_gpu"
    value {
      b: true
    }
  }
}
node {
  name: "module/3/0/1/0/conv2d_5/BiasAdd/ReadVariableOp"
  op: "ReadVariableOp"
  input: "3/0/1/0/conv2d_5/bias"
  attr {
    key: "dtype"
    value {
      type: DT_FLOAT
    }
  }
}
node {
  name: "module/3/0/1/0/conv2d_5/BiasAdd"
  op: "BiasAdd"
  input: "module/3/0/1/0/conv2d_5/Conv2D"
  input: "module/3/0/1/0/conv2d_5/BiasAdd/ReadVariableOp"
  attr {
    key: "T"
    value {
      type: DT_FLOAT
    }
  }
  attr {
    key: "data_format"
    value {
      s: "NHWC"
    }
  }
}
node {
  name: "module/3/0/1/0/batch_normalization_5/Const"
  op: "Const"
  attr {
    key: "dtype"
    value {
      type: DT_FLOAT
    }
  }
  attr {
    key: "value"
    value {
      tensor {
        dtype: DT_FLOAT
        tensor_shape {
          dim {
            size: 64
          }
        }
        float_val: 1.0
      }
    }
  }
}
node {
  name: "module/3/0/1/0/batch_normalization_5/Const_1"
  op: "Const"
  attr {
    key: "dtype"
    value {
      type: DT_FLOAT
    }
  }
  attr {
    key: "value"
    value {
      tensor {
        dtype: DT_FLOAT
        tensor_shape {
          dim {
            size: 64
          }
        }
        float_val: 0.0
      }
    }
  }
}
node {
  name: "3/0/1/0/batch_normalization_5/moving_mean/Initializer/zeros"
  op: "Const"
  attr {
    key: "_class"
    value {
      list {
        s: "loc:@3/0/1/0/batch_normalization_5/moving_mean"
      }
    }
  }
  attr {
    key: "dtype"
    value {
      type: DT_FLOAT
    }
  }
  attr {
    key: "value"
    value {
      tensor {
        dtype: DT_FLOAT
        tensor_shape {
          dim {
            size: 64
          }
        }
        float_val: 0.0
      }
    }
  }
}
node {
  name: "3/0/1/0/batch_normalization_5/moving_mean"
  op: "VarHandleOp"
  attr {
    key: "_class"
    value {
      list {
        s: "loc:@3/0/1/0/batch_normalization_5/moving_mean"
      }
    }
  }
  attr {
    key: "container"
    value {
      s: ""
    }
  }
  attr {
    key: "dtype"
    value {
      type: DT_FLOAT
    }
  }
  attr {
    key: "shape"
    value {
      shape {
        dim {
          size: 64
        }
      }
    }
  }
  attr {
    key: "shared_name"
    value {
      s: "3/0/1/0/batch_normalization_5/moving_mean"
    }
  }
}
node {
  name: "3/0/1/0/batch_normalization_5/moving_mean/IsInitialized/VarIsInitializedOp"
  op: "VarIsInitializedOp"
  input: "3/0/1/0/batch_normalization_5/moving_mean"
}
node {
  name: "3/0/1/0/batch_normalization_5/moving_mean/Assign"
  op: "AssignVariableOp"
  input: "3/0/1/0/batch_normalization_5/moving_mean"
  input: "3/0/1/0/batch_normalization_5/moving_mean/Initializer/zeros"
  attr {
    key: "dtype"
    value {
      type: DT_FLOAT
    }
  }
}
node {
  name: "3/0/1/0/batch_normalization_5/moving_mean/Read/ReadVariableOp"
  op: "ReadVariableOp"
  input: "3/0/1/0/batch_normalization_5/moving_mean"
  attr {
    key: "dtype"
    value {
      type: DT_FLOAT
    }
  }
}
node {
  name: "3/0/1/0/batch_normalization_5/moving_variance/Initializer/ones"
  op: "Const"
  attr {
    key: "_class"
    value {
      list {
        s: "loc:@3/0/1/0/batch_normalization_5/moving_variance"
      }
    }
  }
  attr {
    key: "dtype"
    value {
      type: DT_FLOAT
    }
  }
  attr {
    key: "value"
    value {
      tensor {
        dtype: DT_FLOAT
        tensor_shape {
          dim {
            size: 64
          }
        }
        float_val: 1.0
      }
    }
  }
}
node {
  name: "3/0/1/0/batch_normalization_5/moving_variance"
  op: "VarHandleOp"
  attr {
    key: "_class"
    value {
      list {
        s: "loc:@3/0/1/0/batch_normalization_5/moving_variance"
      }
    }
  }
  attr {
    key: "container"
    value {
      s: ""
    }
  }
  attr {
    key: "dtype"
    value {
      type: DT_FLOAT
    }
  }
  attr {
    key: "shape"
    value {
      shape {
        dim {
          size: 64
        }
      }
    }
  }
  attr {
    key: "shared_name"
    value {
      s: "3/0/1/0/batch_normalization_5/moving_variance"
    }
  }
}
node {
  name: "3/0/1/0/batch_normalization_5/moving_variance/IsInitialized/VarIsInitializedOp"
  op: "VarIsInitializedOp"
  input: "3/0/1/0/batch_normalization_5/moving_variance"
}
node {
  name: "3/0/1/0/batch_normalization_5/moving_variance/Assign"
  op: "AssignVariableOp"
  input: "3/0/1/0/batch_normalization_5/moving_variance"
  input: "3/0/1/0/batch_normalization_5/moving_variance/Initializer/ones"
  attr {
    key: "dtype"
    value {
      type: DT_FLOAT
    }
  }
}
node {
  name: "3/0/1/0/batch_normalization_5/moving_variance/Read/ReadVariableOp"
  op: "ReadVariableOp"
  input: "3/0/1/0/batch_normalization_5/moving_variance"
  attr {
    key: "dtype"
    value {
      type: DT_FLOAT
    }
  }
}
node {
  name: "module/3/0/1/0/batch_normalization_5/FusedBatchNormV3/ReadVariableOp"
  op: "ReadVariableOp"
  input: "3/0/1/0/batch_normalization_5/moving_mean"
  attr {
    key: "dtype"
    value {
      type: DT_FLOAT
    }
  }
}
node {
  name: "module/3/0/1/0/batch_normalization_5/FusedBatchNormV3/ReadVariableOp_1"
  op: "ReadVariableOp"
  input: "3/0/1/0/batch_normalization_5/moving_variance"
  attr {
    key: "dtype"
    value {
      type: DT_FLOAT
    }
  }
}
node {
  name: "module/3/0/1/0/batch_normalization_5/FusedBatchNormV3"
  op: "FusedBatchNormV3"
  input: "module/3/0/1/0/conv2d_5/BiasAdd"
  input: "module/3/0/1/0/batch_normalization_5/Const"
  input: "module/3/0/1/0/batch_normalization_5/Const_1"
  input: "module/3/0/1/0/batch_normalization_5/FusedBatchNormV3/ReadVariableOp"
  input: "module/3/0/1/0/batch_normalization_5/FusedBatchNormV3/ReadVariableOp_1"
  attr {
    key: "T"
    value {
      type: DT_FLOAT
    }
  }
  attr {
    key: "U"
    value {
      type: DT_FLOAT
    }
  }
  attr {
    key: "data_format"
    value {
      s: "NHWC"
    }
  }
  attr {
    key: "epsilon"
    value {
      f: 0.0010000000474974513
    }
  }
  attr {
    key: "is_training"
    value {
      b: false
    }
  }
}
node {
  name: "module/3/0/1/0/batch_normalization_5/Const_2"
  op: "Const"
  attr {
    key: "dtype"
    value {
      type: DT_FLOAT
    }
  }
  attr {
    key: "value"
    value {
      tensor {
        dtype: DT_FLOAT
        tensor_shape {
        }
        float_val: 0.9900000095367432
      }
    }
  }
}
node {
  name: "module/3/0/1/0/Relu_5"
  op: "Relu"
  input: "module/3/0/1/0/batch_normalization_5/FusedBatchNormV3"
  attr {
    key: "T"
    value {
      type: DT_FLOAT
    }
  }
}
node {
  name: "3/0/1/0/conv2d_6/kernel/Initializer/random_uniform/shape"
  op: "Const"
  attr {
    key: "_class"
    value {
      list {
        s: "loc:@3/0/1/0/conv2d_6/kernel"
      }
    }
  }
  attr {
    key: "dtype"
    value {
      type: DT_INT32
    }
  }
  attr {
    key: "value"
    value {
      tensor {
        dtype: DT_INT32
        tensor_shape {
          dim {
            size: 4
          }
        }
        tensor_content: "\013\000\000\000\013\000\000\000@\000\000\000\020\000\000\000"
      }
    }
  }
}
node {
  name: "3/0/1/0/conv2d_6/kernel/Initializer/random_uniform/min"
  op: "Const"
  attr {
    key: "_class"
    value {
      list {
        s: "loc:@3/0/1/0/conv2d_6/kernel"
      }
    }
  }
  attr {
    key: "dtype"
    value {
      type: DT_FLOAT
    }
  }
  attr {
    key: "value"
    value {
      tensor {
        dtype: DT_FLOAT
        tensor_shape {
        }
        float_val: -0.02489648014307022
      }
    }
  }
}
node {
  name: "3/0/1/0/conv2d_6/kernel/Initializer/random_uniform/max"
  op: "Const"
  attr {
    key: "_class"
    value {
      list {
        s: "loc:@3/0/1/0/conv2d_6/kernel"
      }
    }
  }
  attr {
    key: "dtype"
    value {
      type: DT_FLOAT
    }
  }
  attr {
    key: "value"
    value {
      tensor {
        dtype: DT_FLOAT
        tensor_shape {
        }
        float_val: 0.02489648014307022
      }
    }
  }
}
node {
  name: "3/0/1/0/conv2d_6/kernel/Initializer/random_uniform/RandomUniform"
  op: "RandomUniform"
  input: "3/0/1/0/conv2d_6/kernel/Initializer/random_uniform/shape"
  attr {
    key: "T"
    value {
      type: DT_INT32
    }
  }
  attr {
    key: "_class"
    value {
      list {
        s: "loc:@3/0/1/0/conv2d_6/kernel"
      }
    }
  }
  attr {
    key: "dtype"
    value {
      type: DT_FLOAT
    }
  }
  attr {
    key: "seed"
    value {
      i: 0
    }
  }
  attr {
    key: "seed2"
    value {
      i: 0
    }
  }
}
node {
  name: "3/0/1/0/conv2d_6/kernel/Initializer/random_uniform/sub"
  op: "Sub"
  input: "3/0/1/0/conv2d_6/kernel/Initializer/random_uniform/max"
  input: "3/0/1/0/conv2d_6/kernel/Initializer/random_uniform/min"
  attr {
    key: "T"
    value {
      type: DT_FLOAT
    }
  }
  attr {
    key: "_class"
    value {
      list {
        s: "loc:@3/0/1/0/conv2d_6/kernel"
      }
    }
  }
}
node {
  name: "3/0/1/0/conv2d_6/kernel/Initializer/random_uniform/mul"
  op: "Mul"
  input: "3/0/1/0/conv2d_6/kernel/Initializer/random_uniform/RandomUniform"
  input: "3/0/1/0/conv2d_6/kernel/Initializer/random_uniform/sub"
  attr {
    key: "T"
    value {
      type: DT_FLOAT
    }
  }
  attr {
    key: "_class"
    value {
      list {
        s: "loc:@3/0/1/0/conv2d_6/kernel"
      }
    }
  }
}
node {
  name: "3/0/1/0/conv2d_6/kernel/Initializer/random_uniform"
  op: "Add"
  input: "3/0/1/0/conv2d_6/kernel/Initializer/random_uniform/mul"
  input: "3/0/1/0/conv2d_6/kernel/Initializer/random_uniform/min"
  attr {
    key: "T"
    value {
      type: DT_FLOAT
    }
  }
  attr {
    key: "_class"
    value {
      list {
        s: "loc:@3/0/1/0/conv2d_6/kernel"
      }
    }
  }
}
node {
  name: "3/0/1/0/conv2d_6/kernel"
  op: "VarHandleOp"
  attr {
    key: "_class"
    value {
      list {
        s: "loc:@3/0/1/0/conv2d_6/kernel"
      }
    }
  }
  attr {
    key: "container"
    value {
      s: ""
    }
  }
  attr {
    key: "dtype"
    value {
      type: DT_FLOAT
    }
  }
  attr {
    key: "shape"
    value {
      shape {
        dim {
          size: 11
        }
        dim {
          size: 11
        }
        dim {
          size: 64
        }
        dim {
          size: 16
        }
      }
    }
  }
  attr {
    key: "shared_name"
    value {
      s: "3/0/1/0/conv2d_6/kernel"
    }
  }
}
node {
  name: "3/0/1/0/conv2d_6/kernel/IsInitialized/VarIsInitializedOp"
  op: "VarIsInitializedOp"
  input: "3/0/1/0/conv2d_6/kernel"
}
node {
  name: "3/0/1/0/conv2d_6/kernel/Assign"
  op: "AssignVariableOp"
  input: "3/0/1/0/conv2d_6/kernel"
  input: "3/0/1/0/conv2d_6/kernel/Initializer/random_uniform"
  attr {
    key: "dtype"
    value {
      type: DT_FLOAT
    }
  }
}
node {
  name: "3/0/1/0/conv2d_6/kernel/Read/ReadVariableOp"
  op: "ReadVariableOp"
  input: "3/0/1/0/conv2d_6/kernel"
  attr {
    key: "dtype"
    value {
      type: DT_FLOAT
    }
  }
}
node {
  name: "3/0/1/0/conv2d_6/bias/Initializer/zeros"
  op: "Const"
  attr {
    key: "_class"
    value {
      list {
        s: "loc:@3/0/1/0/conv2d_6/bias"
      }
    }
  }
  attr {
    key: "dtype"
    value {
      type: DT_FLOAT
    }
  }
  attr {
    key: "value"
    value {
      tensor {
        dtype: DT_FLOAT
        tensor_shape {
          dim {
            size: 16
          }
        }
        float_val: 0.0
      }
    }
  }
}
node {
  name: "3/0/1/0/conv2d_6/bias"
  op: "VarHandleOp"
  attr {
    key: "_class"
    value {
      list {
        s: "loc:@3/0/1/0/conv2d_6/bias"
      }
    }
  }
  attr {
    key: "container"
    value {
      s: ""
    }
  }
  attr {
    key: "dtype"
    value {
      type: DT_FLOAT
    }
  }
  attr {
    key: "shape"
    value {
      shape {
        dim {
          size: 16
        }
      }
    }
  }
  attr {
    key: "shared_name"
    value {
      s: "3/0/1/0/conv2d_6/bias"
    }
  }
}
node {
  name: "3/0/1/0/conv2d_6/bias/IsInitialized/VarIsInitializedOp"
  op: "VarIsInitializedOp"
  input: "3/0/1/0/conv2d_6/bias"
}
node {
  name: "3/0/1/0/conv2d_6/bias/Assign"
  op: "AssignVariableOp"
  input: "3/0/1/0/conv2d_6/bias"
  input: "3/0/1/0/conv2d_6/bias/Initializer/zeros"
  attr {
    key: "dtype"
    value {
      type: DT_FLOAT
    }
  }
}
node {
  name: "3/0/1/0/conv2d_6/bias/Read/ReadVariableOp"
  op: "ReadVariableOp"
  input: "3/0/1/0/conv2d_6/bias"
  attr {
    key: "dtype"
    value {
      type: DT_FLOAT
    }
  }
}
node {
  name: "module/3/0/1/0/conv2d_6/dilation_rate"
  op: "Const"
  attr {
    key: "dtype"
    value {
      type: DT_INT32
    }
  }
  attr {
    key: "value"
    value {
      tensor {
        dtype: DT_INT32
        tensor_shape {
          dim {
            size: 2
          }
        }
        tensor_content: "\001\000\000\000\001\000\000\000"
      }
    }
  }
}
node {
  name: "module/3/0/1/0/conv2d_6/Conv2D/ReadVariableOp"
  op: "ReadVariableOp"
  input: "3/0/1/0/conv2d_6/kernel"
  attr {
    key: "dtype"
    value {
      type: DT_FLOAT
    }
  }
}
node {
  name: "module/3/0/1/0/conv2d_6/Conv2D"
  op: "Conv2D"
  input: "module/3/0/1/0/Relu_5"
  input: "module/3/0/1/0/conv2d_6/Conv2D/ReadVariableOp"
  attr {
    key: "T"
    value {
      type: DT_FLOAT
    }
  }
  attr {
    key: "data_format"
    value {
      s: "NHWC"
    }
  }
  attr {
    key: "dilations"
    value {
      list {
        i: 1
        i: 1
        i: 1
        i: 1
      }
    }
  }
  attr {
    key: "explicit_paddings"
    value {
      list {
      }
    }
  }
  attr {
    key: "padding"
    value {
      s: "SAME"
    }
  }
  attr {
    key: "strides"
    value {
      list {
        i: 1
        i: 1
        i: 1
        i: 1
      }
    }
  }
  attr {
    key: "use_cudnn_on_gpu"
    value {
      b: true
    }
  }
}
node {
  name: "module/3/0/1/0/conv2d_6/BiasAdd/ReadVariableOp"
  op: "ReadVariableOp"
  input: "3/0/1/0/conv2d_6/bias"
  attr {
    key: "dtype"
    value {
      type: DT_FLOAT
    }
  }
}
node {
  name: "module/3/0/1/0/conv2d_6/BiasAdd"
  op: "BiasAdd"
  input: "module/3/0/1/0/conv2d_6/Conv2D"
  input: "module/3/0/1/0/conv2d_6/BiasAdd/ReadVariableOp"
  attr {
    key: "T"
    value {
      type: DT_FLOAT
    }
  }
  attr {
    key: "data_format"
    value {
      s: "NHWC"
    }
  }
}
node {
  name: "module/3/0/1/0/batch_normalization_6/Const"
  op: "Const"
  attr {
    key: "dtype"
    value {
      type: DT_FLOAT
    }
  }
  attr {
    key: "value"
    value {
      tensor {
        dtype: DT_FLOAT
        tensor_shape {
          dim {
            size: 16
          }
        }
        float_val: 1.0
      }
    }
  }
}
node {
  name: "module/3/0/1/0/batch_normalization_6/Const_1"
  op: "Const"
  attr {
    key: "dtype"
    value {
      type: DT_FLOAT
    }
  }
  attr {
    key: "value"
    value {
      tensor {
        dtype: DT_FLOAT
        tensor_shape {
          dim {
            size: 16
          }
        }
        float_val: 0.0
      }
    }
  }
}
node {
  name: "3/0/1/0/batch_normalization_6/moving_mean/Initializer/zeros"
  op: "Const"
  attr {
    key: "_class"
    value {
      list {
        s: "loc:@3/0/1/0/batch_normalization_6/moving_mean"
      }
    }
  }
  attr {
    key: "dtype"
    value {
      type: DT_FLOAT
    }
  }
  attr {
    key: "value"
    value {
      tensor {
        dtype: DT_FLOAT
        tensor_shape {
          dim {
            size: 16
          }
        }
        float_val: 0.0
      }
    }
  }
}
node {
  name: "3/0/1/0/batch_normalization_6/moving_mean"
  op: "VarHandleOp"
  attr {
    key: "_class"
    value {
      list {
        s: "loc:@3/0/1/0/batch_normalization_6/moving_mean"
      }
    }
  }
  attr {
    key: "container"
    value {
      s: ""
    }
  }
  attr {
    key: "dtype"
    value {
      type: DT_FLOAT
    }
  }
  attr {
    key: "shape"
    value {
      shape {
        dim {
          size: 16
        }
      }
    }
  }
  attr {
    key: "shared_name"
    value {
      s: "3/0/1/0/batch_normalization_6/moving_mean"
    }
  }
}
node {
  name: "3/0/1/0/batch_normalization_6/moving_mean/IsInitialized/VarIsInitializedOp"
  op: "VarIsInitializedOp"
  input: "3/0/1/0/batch_normalization_6/moving_mean"
}
node {
  name: "3/0/1/0/batch_normalization_6/moving_mean/Assign"
  op: "AssignVariableOp"
  input: "3/0/1/0/batch_normalization_6/moving_mean"
  input: "3/0/1/0/batch_normalization_6/moving_mean/Initializer/zeros"
  attr {
    key: "dtype"
    value {
      type: DT_FLOAT
    }
  }
}
node {
  name: "3/0/1/0/batch_normalization_6/moving_mean/Read/ReadVariableOp"
  op: "ReadVariableOp"
  input: "3/0/1/0/batch_normalization_6/moving_mean"
  attr {
    key: "dtype"
    value {
      type: DT_FLOAT
    }
  }
}
node {
  name: "3/0/1/0/batch_normalization_6/moving_variance/Initializer/ones"
  op: "Const"
  attr {
    key: "_class"
    value {
      list {
        s: "loc:@3/0/1/0/batch_normalization_6/moving_variance"
      }
    }
  }
  attr {
    key: "dtype"
    value {
      type: DT_FLOAT
    }
  }
  attr {
    key: "value"
    value {
      tensor {
        dtype: DT_FLOAT
        tensor_shape {
          dim {
            size: 16
          }
        }
        float_val: 1.0
      }
    }
  }
}
node {
  name: "3/0/1/0/batch_normalization_6/moving_variance"
  op: "VarHandleOp"
  attr {
    key: "_class"
    value {
      list {
        s: "loc:@3/0/1/0/batch_normalization_6/moving_variance"
      }
    }
  }
  attr {
    key: "container"
    value {
      s: ""
    }
  }
  attr {
    key: "dtype"
    value {
      type: DT_FLOAT
    }
  }
  attr {
    key: "shape"
    value {
      shape {
        dim {
          size: 16
        }
      }
    }
  }
  attr {
    key: "shared_name"
    value {
      s: "3/0/1/0/batch_normalization_6/moving_variance"
    }
  }
}
node {
  name: "3/0/1/0/batch_normalization_6/moving_variance/IsInitialized/VarIsInitializedOp"
  op: "VarIsInitializedOp"
  input: "3/0/1/0/batch_normalization_6/moving_variance"
}
node {
  name: "3/0/1/0/batch_normalization_6/moving_variance/Assign"
  op: "AssignVariableOp"
  input: "3/0/1/0/batch_normalization_6/moving_variance"
  input: "3/0/1/0/batch_normalization_6/moving_variance/Initializer/ones"
  attr {
    key: "dtype"
    value {
      type: DT_FLOAT
    }
  }
}
node {
  name: "3/0/1/0/batch_normalization_6/moving_variance/Read/ReadVariableOp"
  op: "ReadVariableOp"
  input: "3/0/1/0/batch_normalization_6/moving_variance"
  attr {
    key: "dtype"
    value {
      type: DT_FLOAT
    }
  }
}
node {
  name: "module/3/0/1/0/batch_normalization_6/FusedBatchNormV3/ReadVariableOp"
  op: "ReadVariableOp"
  input: "3/0/1/0/batch_normalization_6/moving_mean"
  attr {
    key: "dtype"
    value {
      type: DT_FLOAT
    }
  }
}
node {
  name: "module/3/0/1/0/batch_normalization_6/FusedBatchNormV3/ReadVariableOp_1"
  op: "ReadVariableOp"
  input: "3/0/1/0/batch_normalization_6/moving_variance"
  attr {
    key: "dtype"
    value {
      type: DT_FLOAT
    }
  }
}
node {
  name: "module/3/0/1/0/batch_normalization_6/FusedBatchNormV3"
  op: "FusedBatchNormV3"
  input: "module/3/0/1/0/conv2d_6/BiasAdd"
  input: "module/3/0/1/0/batch_normalization_6/Const"
  input: "module/3/0/1/0/batch_normalization_6/Const_1"
  input: "module/3/0/1/0/batch_normalization_6/FusedBatchNormV3/ReadVariableOp"
  input: "module/3/0/1/0/batch_normalization_6/FusedBatchNormV3/ReadVariableOp_1"
  attr {
    key: "T"
    value {
      type: DT_FLOAT
    }
  }
  attr {
    key: "U"
    value {
      type: DT_FLOAT
    }
  }
  attr {
    key: "data_format"
    value {
      s: "NHWC"
    }
  }
  attr {
    key: "epsilon"
    value {
      f: 0.0010000000474974513
    }
  }
  attr {
    key: "is_training"
    value {
      b: false
    }
  }
}
node {
  name: "module/3/0/1/0/batch_normalization_6/Const_2"
  op: "Const"
  attr {
    key: "dtype"
    value {
      type: DT_FLOAT
    }
  }
  attr {
    key: "value"
    value {
      tensor {
        dtype: DT_FLOAT
        tensor_shape {
        }
        float_val: 0.9900000095367432
      }
    }
  }
}
node {
  name: "module/3/0/1/0/Relu_6"
  op: "Relu"
  input: "module/3/0/1/0/batch_normalization_6/FusedBatchNormV3"
  attr {
    key: "T"
    value {
      type: DT_FLOAT
    }
  }
}
node {
  name: "module/3/0/1/0/concat/axis"
  op: "Const"
  attr {
    key: "dtype"
    value {
      type: DT_INT32
    }
  }
  attr {
    key: "value"
    value {
      tensor {
        dtype: DT_INT32
        tensor_shape {
        }
        int_val: 3
      }
    }
  }
}
node {
  name: "module/3/0/1/0/concat"
  op: "ConcatV2"
  input: "module/3/0/1/0/Relu"
  input: "module/3/0/1/0/Relu_2"
  input: "module/3/0/1/0/Relu_4"
  input: "module/3/0/1/0/Relu_6"
  input: "module/3/0/1/0/concat/axis"
  attr {
    key: "N"
    value {
      i: 4
    }
  }
  attr {
    key: "T"
    value {
      type: DT_FLOAT
    }
  }
  attr {
    key: "Tidx"
    value {
      type: DT_INT32
    }
  }
}
node {
  name: "module/3/add"
  op: "AddV2"
  input: "module/3/0/1/0/concat"
  input: "module/3/0/0/6/resize/ResizeBilinear"
  attr {
    key: "T"
    value {
      type: DT_FLOAT
    }
  }
}
node {
  name: "4/conv2d/kernel/Initializer/random_uniform/shape"
  op: "Const"
  attr {
    key: "_class"
    value {
      list {
        s: "loc:@4/conv2d/kernel"
      }
    }
  }
  attr {
    key: "dtype"
    value {
      type: DT_INT32
    }
  }
  attr {
    key: "value"
    value {
      tensor {
        dtype: DT_INT32
        tensor_shape {
          dim {
            size: 4
          }
        }
        tensor_content: "\003\000\000\000\003\000\000\000@\000\000\000\001\000\000\000"
      }
    }
  }
}
node {
  name: "4/conv2d/kernel/Initializer/random_uniform/min"
  op: "Const"
  attr {
    key: "_class"
    value {
      list {
        s: "loc:@4/conv2d/kernel"
      }
    }
  }
  attr {
    key: "dtype"
    value {
      type: DT_FLOAT
    }
  }
  attr {
    key: "value"
    value {
      tensor {
        dtype: DT_FLOAT
        tensor_shape {
        }
        float_val: -0.10127393901348114
      }
    }
  }
}
node {
  name: "4/conv2d/kernel/Initializer/random_uniform/max"
  op: "Const"
  attr {
    key: "_class"
    value {
      list {
        s: "loc:@4/conv2d/kernel"
      }
    }
  }
  attr {
    key: "dtype"
    value {
      type: DT_FLOAT
    }
  }
  attr {
    key: "value"
    value {
      tensor {
        dtype: DT_FLOAT
        tensor_shape {
        }
        float_val: 0.10127393901348114
      }
    }
  }
}
node {
  name: "4/conv2d/kernel/Initializer/random_uniform/RandomUniform"
  op: "RandomUniform"
  input: "4/conv2d/kernel/Initializer/random_uniform/shape"
  attr {
    key: "T"
    value {
      type: DT_INT32
    }
  }
  attr {
    key: "_class"
    value {
      list {
        s: "loc:@4/conv2d/kernel"
      }
    }
  }
  attr {
    key: "dtype"
    value {
      type: DT_FLOAT
    }
  }
  attr {
    key: "seed"
    value {
      i: 0
    }
  }
  attr {
    key: "seed2"
    value {
      i: 0
    }
  }
}
node {
  name: "4/conv2d/kernel/Initializer/random_uniform/sub"
  op: "Sub"
  input: "4/conv2d/kernel/Initializer/random_uniform/max"
  input: "4/conv2d/kernel/Initializer/random_uniform/min"
  attr {
    key: "T"
    value {
      type: DT_FLOAT
    }
  }
  attr {
    key: "_class"
    value {
      list {
        s: "loc:@4/conv2d/kernel"
      }
    }
  }
}
node {
  name: "4/conv2d/kernel/Initializer/random_uniform/mul"
  op: "Mul"
  input: "4/conv2d/kernel/Initializer/random_uniform/RandomUniform"
  input: "4/conv2d/kernel/Initializer/random_uniform/sub"
  attr {
    key: "T"
    value {
      type: DT_FLOAT
    }
  }
  attr {
    key: "_class"
    value {
      list {
        s: "loc:@4/conv2d/kernel"
      }
    }
  }
}
node {
  name: "4/conv2d/kernel/Initializer/random_uniform"
  op: "Add"
  input: "4/conv2d/kernel/Initializer/random_uniform/mul"
  input: "4/conv2d/kernel/Initializer/random_uniform/min"
  attr {
    key: "T"
    value {
      type: DT_FLOAT
    }
  }
  attr {
    key: "_class"
    value {
      list {
        s: "loc:@4/conv2d/kernel"
      }
    }
  }
}
node {
  name: "4/conv2d/kernel"
  op: "VarHandleOp"
  attr {
    key: "_class"
    value {
      list {
        s: "loc:@4/conv2d/kernel"
      }
    }
  }
  attr {
    key: "container"
    value {
      s: ""
    }
  }
  attr {
    key: "dtype"
    value {
      type: DT_FLOAT
    }
  }
  attr {
    key: "shape"
    value {
      shape {
        dim {
          size: 3
        }
        dim {
          size: 3
        }
        dim {
          size: 64
        }
        dim {
          size: 1
        }
      }
    }
  }
  attr {
    key: "shared_name"
    value {
      s: "4/conv2d/kernel"
    }
  }
}
node {
  name: "4/conv2d/kernel/IsInitialized/VarIsInitializedOp"
  op: "VarIsInitializedOp"
  input: "4/conv2d/kernel"
}
node {
  name: "4/conv2d/kernel/Assign"
  op: "AssignVariableOp"
  input: "4/conv2d/kernel"
  input: "4/conv2d/kernel/Initializer/random_uniform"
  attr {
    key: "dtype"
    value {
      type: DT_FLOAT
    }
  }
}
node {
  name: "4/conv2d/kernel/Read/ReadVariableOp"
  op: "ReadVariableOp"
  input: "4/conv2d/kernel"
  attr {
    key: "dtype"
    value {
      type: DT_FLOAT
    }
  }
}
node {
  name: "4/conv2d/bias/Initializer/zeros"
  op: "Const"
  attr {
    key: "_class"
    value {
      list {
        s: "loc:@4/conv2d/bias"
      }
    }
  }
  attr {
    key: "dtype"
    value {
      type: DT_FLOAT
    }
  }
  attr {
    key: "value"
    value {
      tensor {
        dtype: DT_FLOAT
        tensor_shape {
          dim {
            size: 1
          }
        }
        float_val: 0.0
      }
    }
  }
}
node {
  name: "4/conv2d/bias"
  op: "VarHandleOp"
  attr {
    key: "_class"
    value {
      list {
        s: "loc:@4/conv2d/bias"
      }
    }
  }
  attr {
    key: "container"
    value {
      s: ""
    }
  }
  attr {
    key: "dtype"
    value {
      type: DT_FLOAT
    }
  }
  attr {
    key: "shape"
    value {
      shape {
        dim {
          size: 1
        }
      }
    }
  }
  attr {
    key: "shared_name"
    value {
      s: "4/conv2d/bias"
    }
  }
}
node {
  name: "4/conv2d/bias/IsInitialized/VarIsInitializedOp"
  op: "VarIsInitializedOp"
  input: "4/conv2d/bias"
}
node {
  name: "4/conv2d/bias/Assign"
  op: "AssignVariableOp"
  input: "4/conv2d/bias"
  input: "4/conv2d/bias/Initializer/zeros"
  attr {
    key: "dtype"
    value {
      type: DT_FLOAT
    }
  }
}
node {
  name: "4/conv2d/bias/Read/ReadVariableOp"
  op: "ReadVariableOp"
  input: "4/conv2d/bias"
  attr {
    key: "dtype"
    value {
      type: DT_FLOAT
    }
  }
}
node {
  name: "module/4/conv2d/dilation_rate"
  op: "Const"
  attr {
    key: "dtype"
    value {
      type: DT_INT32
    }
  }
  attr {
    key: "value"
    value {
      tensor {
        dtype: DT_INT32
        tensor_shape {
          dim {
            size: 2
          }
        }
        tensor_content: "\001\000\000\000\001\000\000\000"
      }
    }
  }
}
node {
  name: "module/4/conv2d/Conv2D/ReadVariableOp"
  op: "ReadVariableOp"
  input: "4/conv2d/kernel"
  attr {
    key: "dtype"
    value {
      type: DT_FLOAT
    }
  }
}
node {
  name: "module/4/conv2d/Conv2D"
  op: "Conv2D"
  input: "module/3/add"
  input: "module/4/conv2d/Conv2D/ReadVariableOp"
  attr {
    key: "T"
    value {
      type: DT_FLOAT
    }
  }
  attr {
    key: "data_format"
    value {
      s: "NHWC"
    }
  }
  attr {
    key: "dilations"
    value {
      list {
        i: 1
        i: 1
        i: 1
        i: 1
      }
    }
  }
  attr {
    key: "explicit_paddings"
    value {
      list {
      }
    }
  }
  attr {
    key: "padding"
    value {
      s: "SAME"
    }
  }
  attr {
    key: "strides"
    value {
      list {
        i: 1
        i: 1
        i: 1
        i: 1
      }
    }
  }
  attr {
    key: "use_cudnn_on_gpu"
    value {
      b: true
    }
  }
}
node {
  name: "module/4/conv2d/BiasAdd/ReadVariableOp"
  op: "ReadVariableOp"
  input: "4/conv2d/bias"
  attr {
    key: "dtype"
    value {
      type: DT_FLOAT
    }
  }
}
node {
  name: "module/4/conv2d/BiasAdd"
  op: "BiasAdd"
  input: "module/4/conv2d/Conv2D"
  input: "module/4/conv2d/BiasAdd/ReadVariableOp"
  attr {
    key: "T"
    value {
      type: DT_FLOAT
    }
  }
  attr {
    key: "data_format"
    value {
      s: "NHWC"
    }
  }
}
node {
  name: "module/Squeeze"
  op: "Squeeze"
  input: "module/4/conv2d/BiasAdd"
  attr {
    key: "T"
    value {
      type: DT_FLOAT
    }
  }
  attr {
    key: "squeeze_dims"
    value {
      list {
      }
    }
  }
}
node {
  name: "module/Exp"
  op: "Exp"
  input: "module/Squeeze"
  attr {
    key: "T"
    value {
      type: DT_FLOAT
    }
  }
}
node {
  name: "module/truediv/x"
  op: "Const"
  attr {
    key: "dtype"
    value {
      type: DT_FLOAT
    }
  }
  attr {
    key: "value"
    value {
      tensor {
        dtype: DT_FLOAT
        tensor_shape {
        }
        float_val: 1.0
      }
    }
  }
}
node {
  name: "module/truediv"
  op: "RealDiv"
  input: "module/truediv/x"
  input: "module/Exp"
  attr {
    key: "T"
    value {
      type: DT_FLOAT
    }
  }
}
node {
  name: "module/Const"
  op: "Const"
  attr {
    key: "dtype"
    value {
      type: DT_INT32
    }
  }
  attr {
    key: "value"
    value {
      tensor {
        dtype: DT_INT32
        tensor_shape {
          dim {
            size: 2
          }
        }
        tensor_content: "\000\000\000\000\001\000\000\000"
      }
    }
  }
}
node {
  name: "module/Max"
  op: "Max"
  input: "module/truediv"
  input: "module/Const"
  attr {
    key: "T"
    value {
      type: DT_FLOAT
    }
  }
  attr {
    key: "Tidx"
    value {
      type: DT_INT32
    }
  }
  attr {
    key: "keep_dims"
    value {
      b: false
    }
  }
}
node {
  name: "module/truediv_1"
  op: "RealDiv"
  input: "module/truediv"
  input: "module/Max"
  attr {
    key: "T"
    value {
      type: DT_FLOAT
    }
  }
}
versions {
  producer: 175
}
